{"format": "graph-model", "generatedBy": "2.16.1", "convertedBy": "TensorFlow.js Converter v4.20.0", "signature": {"outputs": {"Identity:0": {"name": "Identity:0"}}}, "modelTopology": {"node": [{"name": "ConstantFolding/PartitionedCall/model_43/tf.math.divide_1/truediv_recip", "op": "Const", "attr": {"value": {"tensor": {"dtype": "DT_FLOAT", "tensorShape": {"dim": [{"size": "1"}, {"size": "1"}, {"size": "1"}]}}}, "dtype": {"type": "DT_FLOAT"}}}, {"name": "28818", "op": "Const", "attr": {"value": {"tensor": {"dtype": "DT_FLOAT", "tensorShape": {"dim": [{"size": "1"}, {"size": "2"}, {"size": "8400"}]}}}, "dtype": {"type": "DT_FLOAT"}}}, {"name": "28810", "op": "Const", "attr": {"value": {"tensor": {"dtype": "DT_INT64", "tensorShape": {"dim": [{"size": "3"}]}}}, "dtype": {"type": "DT_INT64"}}}, {"name": "28812", "op": "Const", "attr": {"value": {"tensor": {"dtype": "DT_INT64", "tensorShape": {"dim": [{"size": "3"}]}}}, "dtype": {"type": "DT_INT64"}}}, {"name": "PartitionedCall/model_43/tf.strided_slice_39/ones_like", "op": "Const", "attr": {"dtype": {"type": "DT_INT64"}, "value": {"tensor": {"dtype": "DT_INT64", "tensorShape": {"dim": [{"size": "3"}]}}}}}, {"name": "28820", "op": "Const", "attr": {"value": {"tensor": {"dtype": "DT_FLOAT", "tensorShape": {"dim": [{"size": "1"}, {"size": "2"}, {"size": "8400"}]}}}, "dtype": {"type": "DT_FLOAT"}}}, {"name": "28804", "op": "Const", "attr": {"dtype": {"type": "DT_INT64"}, "value": {"tensor": {"dtype": "DT_INT64", "tensorShape": {"dim": [{"size": "3"}]}}}}}, {"name": "28806", "op": "Const", "attr": {"dtype": {"type": "DT_INT64"}, "value": {"tensor": {"dtype": "DT_INT64", "tensorShape": {"dim": [{"size": "3"}]}}}}}, {"name": "PartitionedCall/model_43/tf.strided_slice_36/StridedSlice/strides", "op": "Const", "attr": {"value": {"tensor": {"dtype": "DT_INT64", "tensorShape": {"dim": [{"size": "3"}]}}}, "dtype": {"type": "DT_INT64"}}}, {"name": "PartitionedCall/model_43/tf.reshape_26/Reshape/shape", "op": "Const", "attr": {"value": {"tensor": {"dtype": "DT_INT32", "tensorShape": {"dim": [{"size": "4"}]}}}, "dtype": {"type": "DT_INT32"}}}, {"name": "PartitionedCall/model_43/tf.compat.v1.transpose_59/transpose/perm", "op": "Const", "attr": {"value": {"tensor": {"dtype": "DT_INT32", "tensorShape": {"dim": [{"size": "4"}]}}}, "dtype": {"type": "DT_INT32"}}}, {"name": "PartitionedCall/model_43/tf.compat.v1.transpose_60/transpose/perm", "op": "Const", "attr": {"dtype": {"type": "DT_INT32"}, "value": {"tensor": {"dtype": "DT_INT32", "tensorShape": {"dim": [{"size": "4"}]}}}}}, {"name": "28808", "op": "Const", "attr": {"value": {"tensor": {"dtype": "DT_FLOAT", "tensorShape": {"dim": [{"size": "1"}, {"size": "1"}, {"size": "16"}, {"size": "1"}]}}}, "dtype": {"type": "DT_FLOAT"}}}, {"name": "PartitionedCall/model_43/tf.compat.v1.transpose_65/transpose/perm", "op": "Const", "attr": {"dtype": {"type": "DT_INT32"}, "value": {"tensor": {"dtype": "DT_INT32", "tensorShape": {"dim": [{"size": "4"}]}}}}}, {"name": "PartitionedCall/model_43/tf.reshape_29/Reshape/shape", "op": "Const", "attr": {"value": {"tensor": {"dtype": "DT_INT32", "tensorShape": {"dim": [{"size": "3"}]}}}, "dtype": {"type": "DT_INT32"}}}, {"name": "28814", "op": "Const", "attr": {"value": {"tensor": {"dtype": "DT_INT64", "tensorShape": {"dim": [{"size": "3"}]}}}, "dtype": {"type": "DT_INT64"}}}, {"name": "28816", "op": "Const", "attr": {"value": {"tensor": {"dtype": "DT_INT64", "tensorShape": {"dim": [{"size": "3"}]}}}, "dtype": {"type": "DT_INT64"}}}, {"name": "PartitionedCall/model_43/tf.strided_slice_38/ones_like", "op": "Const", "attr": {"dtype": {"type": "DT_INT64"}, "value": {"tensor": {"dtype": "DT_INT64", "tensorShape": {"dim": [{"size": "3"}]}}}}}, {"name": "PartitionedCall/model_43/tf.concat_46/concat/axis", "op": "Const", "attr": {"dtype": {"type": "DT_INT32"}, "value": {"tensor": {"dtype": "DT_INT32", "tensorShape": {}}}}}, {"name": "PartitionedCall/model_43/tf.math.multiply_505/Mul/y", "op": "Const", "attr": {"dtype": {"type": "DT_FLOAT"}, "value": {"tensor": {"dtype": "DT_FLOAT", "tensorShape": {"dim": [{"size": "1"}, {"size": "1"}, {"size": "8400"}]}}}}}, {"name": "28744", "op": "Const", "attr": {"value": {"tensor": {"dtype": "DT_FLOAT", "tensorShape": {"dim": [{"size": "3"}, {"size": "3"}, {"size": "64"}, {"size": "64"}]}}}, "dtype": {"type": "DT_FLOAT"}}}, {"name": "28754", "op": "Const", "attr": {"dtype": {"type": "DT_FLOAT"}, "value": {"tensor": {"dtype": "DT_FLOAT", "tensorShape": {"dim": [{"size": "64"}]}}}}}, {"name": "28768", "op": "Const", "attr": {"dtype": {"type": "DT_FLOAT"}, "value": {"tensor": {"dtype": "DT_FLOAT", "tensorShape": {"dim": [{"size": "3"}, {"size": "3"}, {"size": "64"}, {"size": "64"}]}}}}}, {"name": "28778", "op": "Const", "attr": {"value": {"tensor": {"dtype": "DT_FLOAT", "tensorShape": {"dim": [{"size": "64"}]}}}, "dtype": {"type": "DT_FLOAT"}}}, {"name": "28790", "op": "Const", "attr": {"value": {"tensor": {"dtype": "DT_FLOAT", "tensorShape": {"dim": [{"size": "1"}, {"size": "1"}, {"size": "64"}, {"size": "64"}]}}}, "dtype": {"type": "DT_FLOAT"}}}, {"name": "28800", "op": "Const", "attr": {"dtype": {"type": "DT_FLOAT"}, "value": {"tensor": {"dtype": "DT_FLOAT", "tensorShape": {"dim": [{"size": "64"}]}}}}}, {"name": "28730", "op": "Const", "attr": {"value": {"tensor": {"dtype": "DT_FLOAT", "tensorShape": {"dim": [{"size": "3"}, {"size": "3"}, {"size": "64"}, {"size": "80"}]}}}, "dtype": {"type": "DT_FLOAT"}}}, {"name": "28734", "op": "Const", "attr": {"value": {"tensor": {"dtype": "DT_FLOAT", "tensorShape": {"dim": [{"size": "80"}]}}}, "dtype": {"type": "DT_FLOAT"}}}, {"name": "28756", "op": "Const", "attr": {"dtype": {"type": "DT_FLOAT"}, "value": {"tensor": {"dtype": "DT_FLOAT", "tensorShape": {"dim": [{"size": "3"}, {"size": "3"}, {"size": "80"}, {"size": "80"}]}}}}}, {"name": "28758", "op": "Const", "attr": {"dtype": {"type": "DT_FLOAT"}, "value": {"tensor": {"dtype": "DT_FLOAT", "tensorShape": {"dim": [{"size": "80"}]}}}}}, {"name": "28788", "op": "Const", "attr": {"dtype": {"type": "DT_FLOAT"}, "value": {"tensor": {"dtype": "DT_FLOAT", "tensorShape": {"dim": [{"size": "1"}, {"size": "1"}, {"size": "80"}, {"size": "80"}]}}}}}, {"name": "28802", "op": "Const", "attr": {"value": {"tensor": {"dtype": "DT_FLOAT", "tensorShape": {"dim": [{"size": "80"}]}}}, "dtype": {"type": "DT_FLOAT"}}}, {"name": "PartitionedCall/model_43/tf.concat_36/concat/axis", "op": "Const", "attr": {"value": {"tensor": {"dtype": "DT_INT32", "tensorShape": {}}}, "dtype": {"type": "DT_INT32"}}}, {"name": "PartitionedCall/model_43/tf.compat.v1.transpose_42/transpose/perm", "op": "Const", "attr": {"dtype": {"type": "DT_INT32"}, "value": {"tensor": {"dtype": "DT_INT32", "tensorShape": {"dim": [{"size": "4"}]}}}}}, {"name": "PartitionedCall/model_43/tf.reshape_17/Reshape/shape", "op": "Const", "attr": {"value": {"tensor": {"dtype": "DT_INT32", "tensorShape": {"dim": [{"size": "3"}]}}}, "dtype": {"type": "DT_INT32"}}}, {"name": "28742", "op": "Const", "attr": {"dtype": {"type": "DT_FLOAT"}, "value": {"tensor": {"dtype": "DT_FLOAT", "tensorShape": {"dim": [{"size": "3"}, {"size": "3"}, {"size": "128"}, {"size": "64"}]}}}}}, {"name": "28752", "op": "Const", "attr": {"value": {"tensor": {"dtype": "DT_FLOAT", "tensorShape": {"dim": [{"size": "64"}]}}}, "dtype": {"type": "DT_FLOAT"}}}, {"name": "28766", "op": "Const", "attr": {"value": {"tensor": {"dtype": "DT_FLOAT", "tensorShape": {"dim": [{"size": "3"}, {"size": "3"}, {"size": "64"}, {"size": "64"}]}}}, "dtype": {"type": "DT_FLOAT"}}}, {"name": "28776", "op": "Const", "attr": {"dtype": {"type": "DT_FLOAT"}, "value": {"tensor": {"dtype": "DT_FLOAT", "tensorShape": {"dim": [{"size": "64"}]}}}}}, {"name": "28786", "op": "Const", "attr": {"value": {"tensor": {"dtype": "DT_FLOAT", "tensorShape": {"dim": [{"size": "1"}, {"size": "1"}, {"size": "64"}, {"size": "64"}]}}}, "dtype": {"type": "DT_FLOAT"}}}, {"name": "28796", "op": "Const", "attr": {"dtype": {"type": "DT_FLOAT"}, "value": {"tensor": {"dtype": "DT_FLOAT", "tensorShape": {"dim": [{"size": "64"}]}}}}}, {"name": "28740", "op": "Const", "attr": {"value": {"tensor": {"dtype": "DT_FLOAT", "tensorShape": {"dim": [{"size": "3"}, {"size": "3"}, {"size": "128"}, {"size": "80"}]}}}, "dtype": {"type": "DT_FLOAT"}}}, {"name": "28750", "op": "Const", "attr": {"dtype": {"type": "DT_FLOAT"}, "value": {"tensor": {"dtype": "DT_FLOAT", "tensorShape": {"dim": [{"size": "80"}]}}}}}, {"name": "28764", "op": "Const", "attr": {"dtype": {"type": "DT_FLOAT"}, "value": {"tensor": {"dtype": "DT_FLOAT", "tensorShape": {"dim": [{"size": "3"}, {"size": "3"}, {"size": "80"}, {"size": "80"}]}}}}}, {"name": "28774", "op": "Const", "attr": {"value": {"tensor": {"dtype": "DT_FLOAT", "tensorShape": {"dim": [{"size": "80"}]}}}, "dtype": {"type": "DT_FLOAT"}}}, {"name": "28784", "op": "Const", "attr": {"dtype": {"type": "DT_FLOAT"}, "value": {"tensor": {"dtype": "DT_FLOAT", "tensorShape": {"dim": [{"size": "1"}, {"size": "1"}, {"size": "80"}, {"size": "80"}]}}}}}, {"name": "28798", "op": "Const", "attr": {"dtype": {"type": "DT_FLOAT"}, "value": {"tensor": {"dtype": "DT_FLOAT", "tensorShape": {"dim": [{"size": "80"}]}}}}}, {"name": "PartitionedCall/model_43/tf.concat_39/concat/axis", "op": "Const", "attr": {"value": {"tensor": {"dtype": "DT_INT32", "tensorShape": {}}}, "dtype": {"type": "DT_INT32"}}}, {"name": "PartitionedCall/model_43/tf.compat.v1.transpose_47/transpose/perm", "op": "Const", "attr": {"dtype": {"type": "DT_INT32"}, "value": {"tensor": {"dtype": "DT_INT32", "tensorShape": {"dim": [{"size": "4"}]}}}}}, {"name": "PartitionedCall/model_43/tf.reshape_20/Reshape/shape", "op": "Const", "attr": {"dtype": {"type": "DT_INT32"}, "value": {"tensor": {"dtype": "DT_INT32", "tensorShape": {"dim": [{"size": "3"}]}}}}}, {"name": "28738", "op": "Const", "attr": {"value": {"tensor": {"dtype": "DT_FLOAT", "tensorShape": {"dim": [{"size": "3"}, {"size": "3"}, {"size": "256"}, {"size": "64"}]}}}, "dtype": {"type": "DT_FLOAT"}}}, {"name": "28748", "op": "Const", "attr": {"dtype": {"type": "DT_FLOAT"}, "value": {"tensor": {"dtype": "DT_FLOAT", "tensorShape": {"dim": [{"size": "64"}]}}}}}, {"name": "28762", "op": "Const", "attr": {"value": {"tensor": {"dtype": "DT_FLOAT", "tensorShape": {"dim": [{"size": "3"}, {"size": "3"}, {"size": "64"}, {"size": "64"}]}}}, "dtype": {"type": "DT_FLOAT"}}}, {"name": "28772", "op": "Const", "attr": {"dtype": {"type": "DT_FLOAT"}, "value": {"tensor": {"dtype": "DT_FLOAT", "tensorShape": {"dim": [{"size": "64"}]}}}}}, {"name": "28782", "op": "Const", "attr": {"dtype": {"type": "DT_FLOAT"}, "value": {"tensor": {"dtype": "DT_FLOAT", "tensorShape": {"dim": [{"size": "1"}, {"size": "1"}, {"size": "64"}, {"size": "64"}]}}}}}, {"name": "28792", "op": "Const", "attr": {"value": {"tensor": {"dtype": "DT_FLOAT", "tensorShape": {"dim": [{"size": "64"}]}}}, "dtype": {"type": "DT_FLOAT"}}}, {"name": "28724", "op": "Const", "attr": {"value": {"tensor": {"dtype": "DT_INT64", "tensorShape": {"dim": [{"size": "4"}]}}}, "dtype": {"type": "DT_INT64"}}}, {"name": "28726", "op": "Const", "attr": {"dtype": {"type": "DT_INT64"}, "value": {"tensor": {"dtype": "DT_INT64", "tensorShape": {"dim": [{"size": "4"}]}}}}}, {"name": "PartitionedCall/model_43/tf.strided_slice_34/ones_like", "op": "Const", "attr": {"dtype": {"type": "DT_INT64"}, "value": {"tensor": {"dtype": "DT_INT64", "tensorShape": {"dim": [{"size": "4"}]}}}}}, {"name": "28694", "op": "Const", "attr": {"dtype": {"type": "DT_INT64"}, "value": {"tensor": {"dtype": "DT_INT64", "tensorShape": {"dim": [{"size": "4"}]}}}}}, {"name": "28696", "op": "Const", "attr": {"value": {"tensor": {"dtype": "DT_INT64", "tensorShape": {"dim": [{"size": "4"}]}}}, "dtype": {"type": "DT_INT64"}}}, {"name": "PartitionedCall/model_43/tf.strided_slice_32/ones_like", "op": "Const", "attr": {"dtype": {"type": "DT_INT64"}, "value": {"tensor": {"dtype": "DT_INT64", "tensorShape": {"dim": [{"size": "4"}]}}}}}, {"name": "28664", "op": "Const", "attr": {"value": {"tensor": {"dtype": "DT_INT64", "tensorShape": {"dim": [{"size": "4"}]}}}, "dtype": {"type": "DT_INT64"}}}, {"name": "28666", "op": "Const", "attr": {"value": {"tensor": {"dtype": "DT_INT64", "tensorShape": {"dim": [{"size": "4"}]}}}, "dtype": {"type": "DT_INT64"}}}, {"name": "PartitionedCall/model_43/tf.strided_slice_30/ones_like", "op": "Const", "attr": {"dtype": {"type": "DT_INT64"}, "value": {"tensor": {"dtype": "DT_INT64", "tensorShape": {"dim": [{"size": "4"}]}}}}}, {"name": "PartitionedCall/model_43/tf.compat.v1.image.resize_nearest_neighbor_3/ResizeNearestNeighbor/size", "op": "Const", "attr": {"dtype": {"type": "DT_INT32"}, "value": {"tensor": {"dtype": "DT_INT32", "tensorShape": {"dim": [{"size": "2"}]}}}}}, {"name": "PartitionedCall/model_43/tf.concat_31/concat/axis", "op": "Const", "attr": {"dtype": {"type": "DT_INT32"}, "value": {"tensor": {"dtype": "DT_INT32", "tensorShape": {}}}}}, {"name": "28648", "op": "Const", "attr": {"dtype": {"type": "DT_FLOAT"}, "value": {"tensor": {"dtype": "DT_FLOAT", "tensorShape": {"dim": [{"size": "1"}, {"size": "1"}, {"size": "192"}, {"size": "64"}]}}}}}, {"name": "28650", "op": "Const", "attr": {"value": {"tensor": {"dtype": "DT_FLOAT", "tensorShape": {"dim": [{"size": "64"}]}}}, "dtype": {"type": "DT_FLOAT"}}}, {"name": "28652", "op": "Const", "attr": {"value": {"tensor": {"dtype": "DT_INT64", "tensorShape": {"dim": [{"size": "4"}]}}}, "dtype": {"type": "DT_INT64"}}}, {"name": "28654", "op": "Const", "attr": {"value": {"tensor": {"dtype": "DT_INT64", "tensorShape": {"dim": [{"size": "4"}]}}}, "dtype": {"type": "DT_INT64"}}}, {"name": "PartitionedCall/model_43/tf.strided_slice_31/ones_like", "op": "Const", "attr": {"dtype": {"type": "DT_INT64"}, "value": {"tensor": {"dtype": "DT_INT64", "tensorShape": {"dim": [{"size": "4"}]}}}}}, {"name": "28656", "op": "Const", "attr": {"dtype": {"type": "DT_FLOAT"}, "value": {"tensor": {"dtype": "DT_FLOAT", "tensorShape": {"dim": [{"size": "3"}, {"size": "3"}, {"size": "32"}, {"size": "32"}]}}}}}, {"name": "28658", "op": "Const", "attr": {"value": {"tensor": {"dtype": "DT_FLOAT", "tensorShape": {"dim": [{"size": "32"}]}}}, "dtype": {"type": "DT_FLOAT"}}}, {"name": "28660", "op": "Const", "attr": {"dtype": {"type": "DT_FLOAT"}, "value": {"tensor": {"dtype": "DT_FLOAT", "tensorShape": {"dim": [{"size": "3"}, {"size": "3"}, {"size": "32"}, {"size": "32"}]}}}}}, {"name": "28662", "op": "Const", "attr": {"dtype": {"type": "DT_FLOAT"}, "value": {"tensor": {"dtype": "DT_FLOAT", "tensorShape": {"dim": [{"size": "32"}]}}}}}, {"name": "PartitionedCall/model_43/tf.concat_32/concat/axis", "op": "Const", "attr": {"dtype": {"type": "DT_INT32"}, "value": {"tensor": {"dtype": "DT_INT32", "tensorShape": {}}}}}, {"name": "28668", "op": "Const", "attr": {"dtype": {"type": "DT_FLOAT"}, "value": {"tensor": {"dtype": "DT_FLOAT", "tensorShape": {"dim": [{"size": "1"}, {"size": "1"}, {"size": "96"}, {"size": "64"}]}}}}}, {"name": "28670", "op": "Const", "attr": {"dtype": {"type": "DT_FLOAT"}, "value": {"tensor": {"dtype": "DT_FLOAT", "tensorShape": {"dim": [{"size": "64"}]}}}}}, {"name": "28672", "op": "Const", "attr": {"value": {"tensor": {"dtype": "DT_INT32", "tensorShape": {"dim": [{"size": "4"}, {"size": "2"}]}}}, "dtype": {"type": "DT_INT32"}}}, {"name": "28674", "op": "Const", "attr": {"dtype": {"type": "DT_FLOAT"}, "value": {"tensor": {"dtype": "DT_FLOAT", "tensorShape": {"dim": [{"size": "3"}, {"size": "3"}, {"size": "64"}, {"size": "64"}]}}}}}, {"name": "28676", "op": "Const", "attr": {"value": {"tensor": {"dtype": "DT_FLOAT", "tensorShape": {"dim": [{"size": "64"}]}}}, "dtype": {"type": "DT_FLOAT"}}}, {"name": "28640", "op": "Const", "attr": {"dtype": {"type": "DT_INT64"}, "value": {"tensor": {"dtype": "DT_INT64", "tensorShape": {"dim": [{"size": "4"}]}}}}}, {"name": "28642", "op": "Const", "attr": {"value": {"tensor": {"dtype": "DT_INT64", "tensorShape": {"dim": [{"size": "4"}]}}}, "dtype": {"type": "DT_INT64"}}}, {"name": "PartitionedCall/model_43/tf.strided_slice_28/ones_like", "op": "Const", "attr": {"dtype": {"type": "DT_INT64"}, "value": {"tensor": {"dtype": "DT_INT64", "tensorShape": {"dim": [{"size": "4"}]}}}}}, {"name": "PartitionedCall/model_43/tf.compat.v1.image.resize_nearest_neighbor_2/ResizeNearestNeighbor/size", "op": "Const", "attr": {"dtype": {"type": "DT_INT32"}, "value": {"tensor": {"dtype": "DT_INT32", "tensorShape": {"dim": [{"size": "2"}]}}}}}, {"name": "PartitionedCall/model_43/tf.concat_29/concat/axis", "op": "Const", "attr": {"dtype": {"type": "DT_INT32"}, "value": {"tensor": {"dtype": "DT_INT32", "tensorShape": {}}}}}, {"name": "28624", "op": "Const", "attr": {"dtype": {"type": "DT_FLOAT"}, "value": {"tensor": {"dtype": "DT_FLOAT", "tensorShape": {"dim": [{"size": "1"}, {"size": "1"}, {"size": "384"}, {"size": "128"}]}}}}}, {"name": "28626", "op": "Const", "attr": {"dtype": {"type": "DT_FLOAT"}, "value": {"tensor": {"dtype": "DT_FLOAT", "tensorShape": {"dim": [{"size": "128"}]}}}}}, {"name": "28628", "op": "Const", "attr": {"value": {"tensor": {"dtype": "DT_INT64", "tensorShape": {"dim": [{"size": "4"}]}}}, "dtype": {"type": "DT_INT64"}}}, {"name": "28630", "op": "Const", "attr": {"value": {"tensor": {"dtype": "DT_INT64", "tensorShape": {"dim": [{"size": "4"}]}}}, "dtype": {"type": "DT_INT64"}}}, {"name": "PartitionedCall/model_43/tf.strided_slice_29/ones_like", "op": "Const", "attr": {"value": {"tensor": {"dtype": "DT_INT64", "tensorShape": {"dim": [{"size": "4"}]}}}, "dtype": {"type": "DT_INT64"}}}, {"name": "28632", "op": "Const", "attr": {"dtype": {"type": "DT_FLOAT"}, "value": {"tensor": {"dtype": "DT_FLOAT", "tensorShape": {"dim": [{"size": "3"}, {"size": "3"}, {"size": "64"}, {"size": "64"}]}}}}}, {"name": "28634", "op": "Const", "attr": {"value": {"tensor": {"dtype": "DT_FLOAT", "tensorShape": {"dim": [{"size": "64"}]}}}, "dtype": {"type": "DT_FLOAT"}}}, {"name": "28636", "op": "Const", "attr": {"value": {"tensor": {"dtype": "DT_FLOAT", "tensorShape": {"dim": [{"size": "3"}, {"size": "3"}, {"size": "64"}, {"size": "64"}]}}}, "dtype": {"type": "DT_FLOAT"}}}, {"name": "28638", "op": "Const", "attr": {"value": {"tensor": {"dtype": "DT_FLOAT", "tensorShape": {"dim": [{"size": "64"}]}}}, "dtype": {"type": "DT_FLOAT"}}}, {"name": "PartitionedCall/model_43/tf.concat_30/concat/axis", "op": "Const", "attr": {"value": {"tensor": {"dtype": "DT_INT32", "tensorShape": {}}}, "dtype": {"type": "DT_INT32"}}}, {"name": "28644", "op": "Const", "attr": {"value": {"tensor": {"dtype": "DT_FLOAT", "tensorShape": {"dim": [{"size": "1"}, {"size": "1"}, {"size": "192"}, {"size": "128"}]}}}, "dtype": {"type": "DT_FLOAT"}}}, {"name": "28646", "op": "Const", "attr": {"dtype": {"type": "DT_FLOAT"}, "value": {"tensor": {"dtype": "DT_FLOAT", "tensorShape": {"dim": [{"size": "128"}]}}}}}, {"name": "PartitionedCall/model_43/tf.concat_33/concat/axis", "op": "Const", "attr": {"dtype": {"type": "DT_INT32"}, "value": {"tensor": {"dtype": "DT_INT32", "tensorShape": {}}}}}, {"name": "28678", "op": "Const", "attr": {"value": {"tensor": {"dtype": "DT_FLOAT", "tensorShape": {"dim": [{"size": "1"}, {"size": "1"}, {"size": "192"}, {"size": "128"}]}}}, "dtype": {"type": "DT_FLOAT"}}}, {"name": "28680", "op": "Const", "attr": {"value": {"tensor": {"dtype": "DT_FLOAT", "tensorShape": {"dim": [{"size": "128"}]}}}, "dtype": {"type": "DT_FLOAT"}}}, {"name": "28682", "op": "Const", "attr": {"value": {"tensor": {"dtype": "DT_INT64", "tensorShape": {"dim": [{"size": "4"}]}}}, "dtype": {"type": "DT_INT64"}}}, {"name": "28684", "op": "Const", "attr": {"dtype": {"type": "DT_INT64"}, "value": {"tensor": {"dtype": "DT_INT64", "tensorShape": {"dim": [{"size": "4"}]}}}}}, {"name": "PartitionedCall/model_43/tf.strided_slice_33/ones_like", "op": "Const", "attr": {"dtype": {"type": "DT_INT64"}, "value": {"tensor": {"dtype": "DT_INT64", "tensorShape": {"dim": [{"size": "4"}]}}}}}, {"name": "28686", "op": "Const", "attr": {"dtype": {"type": "DT_FLOAT"}, "value": {"tensor": {"dtype": "DT_FLOAT", "tensorShape": {"dim": [{"size": "3"}, {"size": "3"}, {"size": "64"}, {"size": "64"}]}}}}}, {"name": "28688", "op": "Const", "attr": {"value": {"tensor": {"dtype": "DT_FLOAT", "tensorShape": {"dim": [{"size": "64"}]}}}, "dtype": {"type": "DT_FLOAT"}}}, {"name": "28690", "op": "Const", "attr": {"value": {"tensor": {"dtype": "DT_FLOAT", "tensorShape": {"dim": [{"size": "3"}, {"size": "3"}, {"size": "64"}, {"size": "64"}]}}}, "dtype": {"type": "DT_FLOAT"}}}, {"name": "28692", "op": "Const", "attr": {"dtype": {"type": "DT_FLOAT"}, "value": {"tensor": {"dtype": "DT_FLOAT", "tensorShape": {"dim": [{"size": "64"}]}}}}}, {"name": "PartitionedCall/model_43/tf.concat_37/concat/axis", "op": "Const", "attr": {"dtype": {"type": "DT_INT32"}, "value": {"tensor": {"dtype": "DT_INT32", "tensorShape": {}}}}}, {"name": "28698", "op": "Const", "attr": {"value": {"tensor": {"dtype": "DT_FLOAT", "tensorShape": {"dim": [{"size": "1"}, {"size": "1"}, {"size": "192"}, {"size": "128"}]}}}, "dtype": {"type": "DT_FLOAT"}}}, {"name": "28700", "op": "Const", "attr": {"value": {"tensor": {"dtype": "DT_FLOAT", "tensorShape": {"dim": [{"size": "128"}]}}}, "dtype": {"type": "DT_FLOAT"}}}, {"name": "28702", "op": "Const", "attr": {"value": {"tensor": {"dtype": "DT_INT32", "tensorShape": {"dim": [{"size": "4"}, {"size": "2"}]}}}, "dtype": {"type": "DT_INT32"}}}, {"name": "28704", "op": "Const", "attr": {"dtype": {"type": "DT_FLOAT"}, "value": {"tensor": {"dtype": "DT_FLOAT", "tensorShape": {"dim": [{"size": "3"}, {"size": "3"}, {"size": "128"}, {"size": "128"}]}}}}}, {"name": "28706", "op": "Const", "attr": {"dtype": {"type": "DT_FLOAT"}, "value": {"tensor": {"dtype": "DT_FLOAT", "tensorShape": {"dim": [{"size": "128"}]}}}}}, {"name": "28608", "op": "Const", "attr": {"value": {"tensor": {"dtype": "DT_INT64", "tensorShape": {"dim": [{"size": "4"}]}}}, "dtype": {"type": "DT_INT64"}}}, {"name": "28610", "op": "Const", "attr": {"dtype": {"type": "DT_INT64"}, "value": {"tensor": {"dtype": "DT_INT64", "tensorShape": {"dim": [{"size": "4"}]}}}}}, {"name": "PartitionedCall/model_43/tf.strided_slice_26/ones_like", "op": "Const", "attr": {"value": {"tensor": {"dtype": "DT_INT64", "tensorShape": {"dim": [{"size": "4"}]}}}, "dtype": {"type": "DT_INT64"}}}, {"name": "28578", "op": "Const", "attr": {"value": {"tensor": {"dtype": "DT_INT64", "tensorShape": {"dim": [{"size": "4"}]}}}, "dtype": {"type": "DT_INT64"}}}, {"name": "28580", "op": "Const", "attr": {"dtype": {"type": "DT_INT64"}, "value": {"tensor": {"dtype": "DT_INT64", "tensorShape": {"dim": [{"size": "4"}]}}}}}, {"name": "PartitionedCall/model_43/tf.strided_slice_24/ones_like", "op": "Const", "attr": {"value": {"tensor": {"dtype": "DT_INT64", "tensorShape": {"dim": [{"size": "4"}]}}}, "dtype": {"type": "DT_INT64"}}}, {"name": "28540", "op": "Const", "attr": {"value": {"tensor": {"dtype": "DT_INT64", "tensorShape": {"dim": [{"size": "4"}]}}}, "dtype": {"type": "DT_INT64"}}}, {"name": "28542", "op": "Const", "attr": {"value": {"tensor": {"dtype": "DT_INT64", "tensorShape": {"dim": [{"size": "4"}]}}}, "dtype": {"type": "DT_INT64"}}}, {"name": "PartitionedCall/model_43/tf.strided_slice_22/ones_like", "op": "Const", "attr": {"dtype": {"type": "DT_INT64"}, "value": {"tensor": {"dtype": "DT_INT64", "tensorShape": {"dim": [{"size": "4"}]}}}}}, {"name": "28502", "op": "Const", "attr": {"dtype": {"type": "DT_INT64"}, "value": {"tensor": {"dtype": "DT_INT64", "tensorShape": {"dim": [{"size": "4"}]}}}}}, {"name": "28504", "op": "Const", "attr": {"dtype": {"type": "DT_INT64"}, "value": {"tensor": {"dtype": "DT_INT64", "tensorShape": {"dim": [{"size": "4"}]}}}}}, {"name": "PartitionedCall/model_43/tf.strided_slice_20/ones_like", "op": "Const", "attr": {"value": {"tensor": {"dtype": "DT_INT64", "tensorShape": {"dim": [{"size": "4"}]}}}, "dtype": {"type": "DT_INT64"}}}, {"name": "28474", "op": "Const", "attr": {"value": {"tensor": {"dtype": "DT_INT32", "tensorShape": {"dim": [{"size": "4"}, {"size": "2"}]}}}, "dtype": {"type": "DT_INT32"}}}, {"name": "28476", "op": "Const", "attr": {"value": {"tensor": {"dtype": "DT_FLOAT", "tensorShape": {"dim": [{"size": "3"}, {"size": "3"}, {"size": "3"}, {"size": "16"}]}}}, "dtype": {"type": "DT_FLOAT"}}}, {"name": "28478", "op": "Const", "attr": {"value": {"tensor": {"dtype": "DT_FLOAT", "tensorShape": {"dim": [{"size": "16"}]}}}, "dtype": {"type": "DT_FLOAT"}}}, {"name": "28480", "op": "Const", "attr": {"value": {"tensor": {"dtype": "DT_INT32", "tensorShape": {"dim": [{"size": "4"}, {"size": "2"}]}}}, "dtype": {"type": "DT_INT32"}}}, {"name": "28482", "op": "Const", "attr": {"value": {"tensor": {"dtype": "DT_FLOAT", "tensorShape": {"dim": [{"size": "3"}, {"size": "3"}, {"size": "16"}, {"size": "32"}]}}}, "dtype": {"type": "DT_FLOAT"}}}, {"name": "28484", "op": "Const", "attr": {"value": {"tensor": {"dtype": "DT_FLOAT", "tensorShape": {"dim": [{"size": "32"}]}}}, "dtype": {"type": "DT_FLOAT"}}}, {"name": "28486", "op": "Const", "attr": {"dtype": {"type": "DT_FLOAT"}, "value": {"tensor": {"dtype": "DT_FLOAT", "tensorShape": {"dim": [{"size": "1"}, {"size": "1"}, {"size": "32"}, {"size": "32"}]}}}}}, {"name": "28488", "op": "Const", "attr": {"value": {"tensor": {"dtype": "DT_FLOAT", "tensorShape": {"dim": [{"size": "32"}]}}}, "dtype": {"type": "DT_FLOAT"}}}, {"name": "28490", "op": "Const", "attr": {"value": {"tensor": {"dtype": "DT_INT64", "tensorShape": {"dim": [{"size": "4"}]}}}, "dtype": {"type": "DT_INT64"}}}, {"name": "28492", "op": "Const", "attr": {"value": {"tensor": {"dtype": "DT_INT64", "tensorShape": {"dim": [{"size": "4"}]}}}, "dtype": {"type": "DT_INT64"}}}, {"name": "PartitionedCall/model_43/tf.strided_slice_21/ones_like", "op": "Const", "attr": {"dtype": {"type": "DT_INT64"}, "value": {"tensor": {"dtype": "DT_INT64", "tensorShape": {"dim": [{"size": "4"}]}}}}}, {"name": "28494", "op": "Const", "attr": {"dtype": {"type": "DT_FLOAT"}, "value": {"tensor": {"dtype": "DT_FLOAT", "tensorShape": {"dim": [{"size": "3"}, {"size": "3"}, {"size": "16"}, {"size": "16"}]}}}}}, {"name": "28496", "op": "Const", "attr": {"dtype": {"type": "DT_FLOAT"}, "value": {"tensor": {"dtype": "DT_FLOAT", "tensorShape": {"dim": [{"size": "16"}]}}}}}, {"name": "28498", "op": "Const", "attr": {"value": {"tensor": {"dtype": "DT_FLOAT", "tensorShape": {"dim": [{"size": "3"}, {"size": "3"}, {"size": "16"}, {"size": "16"}]}}}, "dtype": {"type": "DT_FLOAT"}}}, {"name": "28500", "op": "Const", "attr": {"dtype": {"type": "DT_FLOAT"}, "value": {"tensor": {"dtype": "DT_FLOAT", "tensorShape": {"dim": [{"size": "16"}]}}}}}, {"name": "PartitionedCall/model_43/tf.concat_24/concat/axis", "op": "Const", "attr": {"value": {"tensor": {"dtype": "DT_INT32", "tensorShape": {}}}, "dtype": {"type": "DT_INT32"}}}, {"name": "28506", "op": "Const", "attr": {"dtype": {"type": "DT_FLOAT"}, "value": {"tensor": {"dtype": "DT_FLOAT", "tensorShape": {"dim": [{"size": "1"}, {"size": "1"}, {"size": "48"}, {"size": "32"}]}}}}}, {"name": "28508", "op": "Const", "attr": {"dtype": {"type": "DT_FLOAT"}, "value": {"tensor": {"dtype": "DT_FLOAT", "tensorShape": {"dim": [{"size": "32"}]}}}}}, {"name": "28510", "op": "Const", "attr": {"value": {"tensor": {"dtype": "DT_INT32", "tensorShape": {"dim": [{"size": "4"}, {"size": "2"}]}}}, "dtype": {"type": "DT_INT32"}}}, {"name": "28512", "op": "Const", "attr": {"value": {"tensor": {"dtype": "DT_FLOAT", "tensorShape": {"dim": [{"size": "3"}, {"size": "3"}, {"size": "32"}, {"size": "64"}]}}}, "dtype": {"type": "DT_FLOAT"}}}, {"name": "28514", "op": "Const", "attr": {"dtype": {"type": "DT_FLOAT"}, "value": {"tensor": {"dtype": "DT_FLOAT", "tensorShape": {"dim": [{"size": "64"}]}}}}}, {"name": "28516", "op": "Const", "attr": {"value": {"tensor": {"dtype": "DT_FLOAT", "tensorShape": {"dim": [{"size": "1"}, {"size": "1"}, {"size": "64"}, {"size": "64"}]}}}, "dtype": {"type": "DT_FLOAT"}}}, {"name": "28518", "op": "Const", "attr": {"value": {"tensor": {"dtype": "DT_FLOAT", "tensorShape": {"dim": [{"size": "64"}]}}}, "dtype": {"type": "DT_FLOAT"}}}, {"name": "28520", "op": "Const", "attr": {"dtype": {"type": "DT_INT64"}, "value": {"tensor": {"dtype": "DT_INT64", "tensorShape": {"dim": [{"size": "4"}]}}}}}, {"name": "28522", "op": "Const", "attr": {"dtype": {"type": "DT_INT64"}, "value": {"tensor": {"dtype": "DT_INT64", "tensorShape": {"dim": [{"size": "4"}]}}}}}, {"name": "PartitionedCall/model_43/tf.strided_slice_23/ones_like", "op": "Const", "attr": {"value": {"tensor": {"dtype": "DT_INT64", "tensorShape": {"dim": [{"size": "4"}]}}}, "dtype": {"type": "DT_INT64"}}}, {"name": "28524", "op": "Const", "attr": {"dtype": {"type": "DT_FLOAT"}, "value": {"tensor": {"dtype": "DT_FLOAT", "tensorShape": {"dim": [{"size": "3"}, {"size": "3"}, {"size": "32"}, {"size": "32"}]}}}}}, {"name": "28526", "op": "Const", "attr": {"value": {"tensor": {"dtype": "DT_FLOAT", "tensorShape": {"dim": [{"size": "32"}]}}}, "dtype": {"type": "DT_FLOAT"}}}, {"name": "28528", "op": "Const", "attr": {"value": {"tensor": {"dtype": "DT_FLOAT", "tensorShape": {"dim": [{"size": "3"}, {"size": "3"}, {"size": "32"}, {"size": "32"}]}}}, "dtype": {"type": "DT_FLOAT"}}}, {"name": "28530", "op": "Const", "attr": {"value": {"tensor": {"dtype": "DT_FLOAT", "tensorShape": {"dim": [{"size": "32"}]}}}, "dtype": {"type": "DT_FLOAT"}}}, {"name": "28532", "op": "Const", "attr": {"dtype": {"type": "DT_FLOAT"}, "value": {"tensor": {"dtype": "DT_FLOAT", "tensorShape": {"dim": [{"size": "3"}, {"size": "3"}, {"size": "32"}, {"size": "32"}]}}}}}, {"name": "28534", "op": "Const", "attr": {"value": {"tensor": {"dtype": "DT_FLOAT", "tensorShape": {"dim": [{"size": "32"}]}}}, "dtype": {"type": "DT_FLOAT"}}}, {"name": "28536", "op": "Const", "attr": {"value": {"tensor": {"dtype": "DT_FLOAT", "tensorShape": {"dim": [{"size": "3"}, {"size": "3"}, {"size": "32"}, {"size": "32"}]}}}, "dtype": {"type": "DT_FLOAT"}}}, {"name": "28538", "op": "Const", "attr": {"dtype": {"type": "DT_FLOAT"}, "value": {"tensor": {"dtype": "DT_FLOAT", "tensorShape": {"dim": [{"size": "32"}]}}}}}, {"name": "PartitionedCall/model_43/tf.concat_25/concat/axis", "op": "Const", "attr": {"dtype": {"type": "DT_INT32"}, "value": {"tensor": {"dtype": "DT_INT32", "tensorShape": {}}}}}, {"name": "28544", "op": "Const", "attr": {"dtype": {"type": "DT_FLOAT"}, "value": {"tensor": {"dtype": "DT_FLOAT", "tensorShape": {"dim": [{"size": "1"}, {"size": "1"}, {"size": "128"}, {"size": "64"}]}}}}}, {"name": "28546", "op": "Const", "attr": {"value": {"tensor": {"dtype": "DT_FLOAT", "tensorShape": {"dim": [{"size": "64"}]}}}, "dtype": {"type": "DT_FLOAT"}}}, {"name": "28548", "op": "Const", "attr": {"dtype": {"type": "DT_INT32"}, "value": {"tensor": {"dtype": "DT_INT32", "tensorShape": {"dim": [{"size": "4"}, {"size": "2"}]}}}}}, {"name": "28550", "op": "Const", "attr": {"dtype": {"type": "DT_FLOAT"}, "value": {"tensor": {"dtype": "DT_FLOAT", "tensorShape": {"dim": [{"size": "3"}, {"size": "3"}, {"size": "64"}, {"size": "128"}]}}}}}, {"name": "28552", "op": "Const", "attr": {"value": {"tensor": {"dtype": "DT_FLOAT", "tensorShape": {"dim": [{"size": "128"}]}}}, "dtype": {"type": "DT_FLOAT"}}}, {"name": "28554", "op": "Const", "attr": {"value": {"tensor": {"dtype": "DT_FLOAT", "tensorShape": {"dim": [{"size": "1"}, {"size": "1"}, {"size": "128"}, {"size": "128"}]}}}, "dtype": {"type": "DT_FLOAT"}}}, {"name": "28556", "op": "Const", "attr": {"dtype": {"type": "DT_FLOAT"}, "value": {"tensor": {"dtype": "DT_FLOAT", "tensorShape": {"dim": [{"size": "128"}]}}}}}, {"name": "28558", "op": "Const", "attr": {"dtype": {"type": "DT_INT64"}, "value": {"tensor": {"dtype": "DT_INT64", "tensorShape": {"dim": [{"size": "4"}]}}}}}, {"name": "28560", "op": "Const", "attr": {"dtype": {"type": "DT_INT64"}, "value": {"tensor": {"dtype": "DT_INT64", "tensorShape": {"dim": [{"size": "4"}]}}}}}, {"name": "PartitionedCall/model_43/tf.strided_slice_25/ones_like", "op": "Const", "attr": {"value": {"tensor": {"dtype": "DT_INT64", "tensorShape": {"dim": [{"size": "4"}]}}}, "dtype": {"type": "DT_INT64"}}}, {"name": "28562", "op": "Const", "attr": {"dtype": {"type": "DT_FLOAT"}, "value": {"tensor": {"dtype": "DT_FLOAT", "tensorShape": {"dim": [{"size": "3"}, {"size": "3"}, {"size": "64"}, {"size": "64"}]}}}}}, {"name": "28564", "op": "Const", "attr": {"value": {"tensor": {"dtype": "DT_FLOAT", "tensorShape": {"dim": [{"size": "64"}]}}}, "dtype": {"type": "DT_FLOAT"}}}, {"name": "28566", "op": "Const", "attr": {"dtype": {"type": "DT_FLOAT"}, "value": {"tensor": {"dtype": "DT_FLOAT", "tensorShape": {"dim": [{"size": "3"}, {"size": "3"}, {"size": "64"}, {"size": "64"}]}}}}}, {"name": "28568", "op": "Const", "attr": {"value": {"tensor": {"dtype": "DT_FLOAT", "tensorShape": {"dim": [{"size": "64"}]}}}, "dtype": {"type": "DT_FLOAT"}}}, {"name": "28570", "op": "Const", "attr": {"value": {"tensor": {"dtype": "DT_FLOAT", "tensorShape": {"dim": [{"size": "3"}, {"size": "3"}, {"size": "64"}, {"size": "64"}]}}}, "dtype": {"type": "DT_FLOAT"}}}, {"name": "28572", "op": "Const", "attr": {"dtype": {"type": "DT_FLOAT"}, "value": {"tensor": {"dtype": "DT_FLOAT", "tensorShape": {"dim": [{"size": "64"}]}}}}}, {"name": "28574", "op": "Const", "attr": {"dtype": {"type": "DT_FLOAT"}, "value": {"tensor": {"dtype": "DT_FLOAT", "tensorShape": {"dim": [{"size": "3"}, {"size": "3"}, {"size": "64"}, {"size": "64"}]}}}}}, {"name": "28576", "op": "Const", "attr": {"dtype": {"type": "DT_FLOAT"}, "value": {"tensor": {"dtype": "DT_FLOAT", "tensorShape": {"dim": [{"size": "64"}]}}}}}, {"name": "PartitionedCall/model_43/tf.concat_26/concat/axis", "op": "Const", "attr": {"dtype": {"type": "DT_INT32"}, "value": {"tensor": {"dtype": "DT_INT32", "tensorShape": {}}}}}, {"name": "28582", "op": "Const", "attr": {"dtype": {"type": "DT_FLOAT"}, "value": {"tensor": {"dtype": "DT_FLOAT", "tensorShape": {"dim": [{"size": "1"}, {"size": "1"}, {"size": "256"}, {"size": "128"}]}}}}}, {"name": "28584", "op": "Const", "attr": {"dtype": {"type": "DT_FLOAT"}, "value": {"tensor": {"dtype": "DT_FLOAT", "tensorShape": {"dim": [{"size": "128"}]}}}}}, {"name": "28586", "op": "Const", "attr": {"dtype": {"type": "DT_INT32"}, "value": {"tensor": {"dtype": "DT_INT32", "tensorShape": {"dim": [{"size": "4"}, {"size": "2"}]}}}}}, {"name": "28588", "op": "Const", "attr": {"dtype": {"type": "DT_FLOAT"}, "value": {"tensor": {"dtype": "DT_FLOAT", "tensorShape": {"dim": [{"size": "3"}, {"size": "3"}, {"size": "128"}, {"size": "256"}]}}}}}, {"name": "28590", "op": "Const", "attr": {"dtype": {"type": "DT_FLOAT"}, "value": {"tensor": {"dtype": "DT_FLOAT", "tensorShape": {"dim": [{"size": "256"}]}}}}}, {"name": "28592", "op": "Const", "attr": {"value": {"tensor": {"dtype": "DT_FLOAT", "tensorShape": {"dim": [{"size": "1"}, {"size": "1"}, {"size": "256"}, {"size": "256"}]}}}, "dtype": {"type": "DT_FLOAT"}}}, {"name": "28594", "op": "Const", "attr": {"dtype": {"type": "DT_FLOAT"}, "value": {"tensor": {"dtype": "DT_FLOAT", "tensorShape": {"dim": [{"size": "256"}]}}}}}, {"name": "28596", "op": "Const", "attr": {"value": {"tensor": {"dtype": "DT_INT64", "tensorShape": {"dim": [{"size": "4"}]}}}, "dtype": {"type": "DT_INT64"}}}, {"name": "28598", "op": "Const", "attr": {"dtype": {"type": "DT_INT64"}, "value": {"tensor": {"dtype": "DT_INT64", "tensorShape": {"dim": [{"size": "4"}]}}}}}, {"name": "PartitionedCall/model_43/tf.strided_slice_27/ones_like", "op": "Const", "attr": {"dtype": {"type": "DT_INT64"}, "value": {"tensor": {"dtype": "DT_INT64", "tensorShape": {"dim": [{"size": "4"}]}}}}}, {"name": "28600", "op": "Const", "attr": {"value": {"tensor": {"dtype": "DT_FLOAT", "tensorShape": {"dim": [{"size": "3"}, {"size": "3"}, {"size": "128"}, {"size": "128"}]}}}, "dtype": {"type": "DT_FLOAT"}}}, {"name": "28602", "op": "Const", "attr": {"dtype": {"type": "DT_FLOAT"}, "value": {"tensor": {"dtype": "DT_FLOAT", "tensorShape": {"dim": [{"size": "128"}]}}}}}, {"name": "28604", "op": "Const", "attr": {"value": {"tensor": {"dtype": "DT_FLOAT", "tensorShape": {"dim": [{"size": "3"}, {"size": "3"}, {"size": "128"}, {"size": "128"}]}}}, "dtype": {"type": "DT_FLOAT"}}}, {"name": "28606", "op": "Const", "attr": {"dtype": {"type": "DT_FLOAT"}, "value": {"tensor": {"dtype": "DT_FLOAT", "tensorShape": {"dim": [{"size": "128"}]}}}}}, {"name": "PartitionedCall/model_43/tf.concat_27/concat/axis", "op": "Const", "attr": {"value": {"tensor": {"dtype": "DT_INT32", "tensorShape": {}}}, "dtype": {"type": "DT_INT32"}}}, {"name": "28612", "op": "Const", "attr": {"value": {"tensor": {"dtype": "DT_FLOAT", "tensorShape": {"dim": [{"size": "1"}, {"size": "1"}, {"size": "384"}, {"size": "256"}]}}}, "dtype": {"type": "DT_FLOAT"}}}, {"name": "28614", "op": "Const", "attr": {"dtype": {"type": "DT_FLOAT"}, "value": {"tensor": {"dtype": "DT_FLOAT", "tensorShape": {"dim": [{"size": "256"}]}}}}}, {"name": "28616", "op": "Const", "attr": {"dtype": {"type": "DT_FLOAT"}, "value": {"tensor": {"dtype": "DT_FLOAT", "tensorShape": {"dim": [{"size": "1"}, {"size": "1"}, {"size": "256"}, {"size": "128"}]}}}}}, {"name": "28618", "op": "Const", "attr": {"value": {"tensor": {"dtype": "DT_FLOAT", "tensorShape": {"dim": [{"size": "128"}]}}}, "dtype": {"type": "DT_FLOAT"}}}, {"name": "PartitionedCall/model_43/tf.concat_28/concat/axis", "op": "Const", "attr": {"dtype": {"type": "DT_INT32"}, "value": {"tensor": {"dtype": "DT_INT32", "tensorShape": {}}}}}, {"name": "28620", "op": "Const", "attr": {"dtype": {"type": "DT_FLOAT"}, "value": {"tensor": {"dtype": "DT_FLOAT", "tensorShape": {"dim": [{"size": "1"}, {"size": "1"}, {"size": "512"}, {"size": "256"}]}}}}}, {"name": "28622", "op": "Const", "attr": {"value": {"tensor": {"dtype": "DT_FLOAT", "tensorShape": {"dim": [{"size": "256"}]}}}, "dtype": {"type": "DT_FLOAT"}}}, {"name": "PartitionedCall/model_43/tf.concat_38/concat/axis", "op": "Const", "attr": {"value": {"tensor": {"dtype": "DT_INT32", "tensorShape": {}}}, "dtype": {"type": "DT_INT32"}}}, {"name": "28708", "op": "Const", "attr": {"value": {"tensor": {"dtype": "DT_FLOAT", "tensorShape": {"dim": [{"size": "1"}, {"size": "1"}, {"size": "384"}, {"size": "256"}]}}}, "dtype": {"type": "DT_FLOAT"}}}, {"name": "28710", "op": "Const", "attr": {"dtype": {"type": "DT_FLOAT"}, "value": {"tensor": {"dtype": "DT_FLOAT", "tensorShape": {"dim": [{"size": "256"}]}}}}}, {"name": "28712", "op": "Const", "attr": {"dtype": {"type": "DT_INT64"}, "value": {"tensor": {"dtype": "DT_INT64", "tensorShape": {"dim": [{"size": "4"}]}}}}}, {"name": "28714", "op": "Const", "attr": {"value": {"tensor": {"dtype": "DT_INT64", "tensorShape": {"dim": [{"size": "4"}]}}}, "dtype": {"type": "DT_INT64"}}}, {"name": "PartitionedCall/model_43/tf.strided_slice_35/ones_like", "op": "Const", "attr": {"dtype": {"type": "DT_INT64"}, "value": {"tensor": {"dtype": "DT_INT64", "tensorShape": {"dim": [{"size": "4"}]}}}}}, {"name": "28716", "op": "Const", "attr": {"value": {"tensor": {"dtype": "DT_FLOAT", "tensorShape": {"dim": [{"size": "3"}, {"size": "3"}, {"size": "128"}, {"size": "128"}]}}}, "dtype": {"type": "DT_FLOAT"}}}, {"name": "28718", "op": "Const", "attr": {"dtype": {"type": "DT_FLOAT"}, "value": {"tensor": {"dtype": "DT_FLOAT", "tensorShape": {"dim": [{"size": "128"}]}}}}}, {"name": "28720", "op": "Const", "attr": {"dtype": {"type": "DT_FLOAT"}, "value": {"tensor": {"dtype": "DT_FLOAT", "tensorShape": {"dim": [{"size": "3"}, {"size": "3"}, {"size": "128"}, {"size": "128"}]}}}}}, {"name": "28722", "op": "Const", "attr": {"dtype": {"type": "DT_FLOAT"}, "value": {"tensor": {"dtype": "DT_FLOAT", "tensorShape": {"dim": [{"size": "128"}]}}}}}, {"name": "PartitionedCall/model_43/tf.concat_40/concat/axis", "op": "Const", "attr": {"value": {"tensor": {"dtype": "DT_INT32", "tensorShape": {}}}, "dtype": {"type": "DT_INT32"}}}, {"name": "28728", "op": "Const", "attr": {"dtype": {"type": "DT_FLOAT"}, "value": {"tensor": {"dtype": "DT_FLOAT", "tensorShape": {"dim": [{"size": "1"}, {"size": "1"}, {"size": "384"}, {"size": "256"}]}}}}}, {"name": "28732", "op": "Const", "attr": {"dtype": {"type": "DT_FLOAT"}, "value": {"tensor": {"dtype": "DT_FLOAT", "tensorShape": {"dim": [{"size": "256"}]}}}}}, {"name": "28736", "op": "Const", "attr": {"value": {"tensor": {"dtype": "DT_FLOAT", "tensorShape": {"dim": [{"size": "3"}, {"size": "3"}, {"size": "256"}, {"size": "80"}]}}}, "dtype": {"type": "DT_FLOAT"}}}, {"name": "28746", "op": "Const", "attr": {"value": {"tensor": {"dtype": "DT_FLOAT", "tensorShape": {"dim": [{"size": "80"}]}}}, "dtype": {"type": "DT_FLOAT"}}}, {"name": "28760", "op": "Const", "attr": {"value": {"tensor": {"dtype": "DT_FLOAT", "tensorShape": {"dim": [{"size": "3"}, {"size": "3"}, {"size": "80"}, {"size": "80"}]}}}, "dtype": {"type": "DT_FLOAT"}}}, {"name": "28770", "op": "Const", "attr": {"dtype": {"type": "DT_FLOAT"}, "value": {"tensor": {"dtype": "DT_FLOAT", "tensorShape": {"dim": [{"size": "80"}]}}}}}, {"name": "28780", "op": "Const", "attr": {"value": {"tensor": {"dtype": "DT_FLOAT", "tensorShape": {"dim": [{"size": "1"}, {"size": "1"}, {"size": "80"}, {"size": "80"}]}}}, "dtype": {"type": "DT_FLOAT"}}}, {"name": "28794", "op": "Const", "attr": {"dtype": {"type": "DT_FLOAT"}, "value": {"tensor": {"dtype": "DT_FLOAT", "tensorShape": {"dim": [{"size": "80"}]}}}}}, {"name": "PartitionedCall/model_43/tf.concat_41/concat/axis", "op": "Const", "attr": {"dtype": {"type": "DT_INT32"}, "value": {"tensor": {"dtype": "DT_INT32", "tensorShape": {}}}}}, {"name": "PartitionedCall/model_43/tf.compat.v1.transpose_52/transpose/perm", "op": "Const", "attr": {"value": {"tensor": {"dtype": "DT_INT32", "tensorShape": {"dim": [{"size": "4"}]}}}, "dtype": {"type": "DT_INT32"}}}, {"name": "PartitionedCall/model_43/tf.reshape_23/Reshape/shape", "op": "Const", "attr": {"value": {"tensor": {"dtype": "DT_INT32", "tensorShape": {"dim": [{"size": "3"}]}}}, "dtype": {"type": "DT_INT32"}}}, {"name": "PartitionedCall/model_43/tf.concat_42/concat/axis", "op": "Const", "attr": {"value": {"tensor": {"dtype": "DT_INT32", "tensorShape": {}}}, "dtype": {"type": "DT_INT32"}}}, {"name": "28824", "op": "Const", "attr": {"value": {"tensor": {"dtype": "DT_INT64", "tensorShape": {"dim": [{"size": "3"}]}}}, "dtype": {"type": "DT_INT64"}}}, {"name": "28826", "op": "Const", "attr": {"value": {"tensor": {"dtype": "DT_INT64", "tensorShape": {"dim": [{"size": "3"}]}}}, "dtype": {"type": "DT_INT64"}}}, {"name": "PartitionedCall/model_43/tf.strided_slice_37/StridedSlice/strides", "op": "Const", "attr": {"value": {"tensor": {"dtype": "DT_INT64", "tensorShape": {"dim": [{"size": "3"}]}}}, "dtype": {"type": "DT_INT64"}}}, {"name": "PartitionedCall/model_43/output0/concat/axis", "op": "Const", "attr": {"dtype": {"type": "DT_INT32"}, "value": {"tensor": {"dtype": "DT_INT32", "tensorShape": {}}}}}, {"name": "x", "op": "Placeholder", "attr": {"shape": {"shape": {"dim": [{"size": "1"}, {"size": "640"}, {"size": "640"}, {"size": "3"}]}}, "dtype": {"type": "DT_FLOAT"}}}, {"name": "PartitionedCall/model_43/tf.compat.v1.pad_7/Pad", "op": "Pad", "input": ["x", "28474"], "attr": {"T": {"type": "DT_FLOAT"}, "Tpaddings": {"type": "DT_INT32"}}}, {"name": "PartitionedCall/model_43/tf.math.add_81/Add", "op": "_FusedConv2D", "input": ["PartitionedCall/model_43/tf.compat.v1.pad_7/Pad", "28476", "28478"], "device": "/device:CPU:0", "attr": {"data_format": {"s": "TkhXQw=="}, "use_cudnn_on_gpu": {"b": true}, "num_args": {"i": "1"}, "filter_format": {"s": "SFdJTw=="}, "fused_ops": {"list": {"s": ["Qmlhc0FkZA=="]}}, "explicit_paddings": {"list": {}}, "TArgs": {"list": {"type": ["DT_FLOAT"]}}, "T": {"type": "DT_FLOAT"}, "num_host_args": {"i": "0"}, "leakyrelu_alpha": {"f": 0.2}, "dilations": {"list": {"i": ["1", "1", "1", "1"]}}, "strides": {"list": {"i": ["1", "2", "2", "1"]}}, "padding": {"s": "VkFMSUQ="}, "epsilon": {"f": 0.0}}}, {"name": "PartitionedCall/model_43/tf.math.sigmoid_58/Sigmoid", "op": "Sigmoid", "input": ["PartitionedCall/model_43/tf.math.add_81/Add"], "attr": {"T": {"type": "DT_FLOAT"}}}, {"name": "PartitionedCall/model_43/tf.math.multiply_256/Mul", "op": "Mul", "input": ["PartitionedCall/model_43/tf.math.add_81/Add", "PartitionedCall/model_43/tf.math.sigmoid_58/Sigmoid"], "attr": {"T": {"type": "DT_FLOAT"}}}, {"name": "PartitionedCall/model_43/tf.compat.v1.pad_8/Pad", "op": "Pad", "input": ["PartitionedCall/model_43/tf.math.multiply_256/Mul", "28480"], "attr": {"Tpaddings": {"type": "DT_INT32"}, "T": {"type": "DT_FLOAT"}}}, {"name": "PartitionedCall/model_43/tf.math.add_82/Add", "op": "_FusedConv2D", "input": ["PartitionedCall/model_43/tf.compat.v1.pad_8/Pad", "28482", "28484"], "device": "/device:CPU:0", "attr": {"leakyrelu_alpha": {"f": 0.2}, "epsilon": {"f": 0.0}, "padding": {"s": "VkFMSUQ="}, "data_format": {"s": "TkhXQw=="}, "explicit_paddings": {"list": {}}, "fused_ops": {"list": {"s": ["Qmlhc0FkZA=="]}}, "num_args": {"i": "1"}, "use_cudnn_on_gpu": {"b": true}, "T": {"type": "DT_FLOAT"}, "strides": {"list": {"i": ["1", "2", "2", "1"]}}, "dilations": {"list": {"i": ["1", "1", "1", "1"]}}, "filter_format": {"s": "SFdJTw=="}, "num_host_args": {"i": "0"}, "TArgs": {"list": {"type": ["DT_FLOAT"]}}}}, {"name": "PartitionedCall/model_43/tf.math.sigmoid_59/Sigmoid", "op": "Sigmoid", "input": ["PartitionedCall/model_43/tf.math.add_82/Add"], "attr": {"T": {"type": "DT_FLOAT"}}}, {"name": "PartitionedCall/model_43/tf.math.multiply_260/Mul", "op": "Mul", "input": ["PartitionedCall/model_43/tf.math.add_82/Add", "PartitionedCall/model_43/tf.math.sigmoid_59/Sigmoid"], "attr": {"T": {"type": "DT_FLOAT"}}}, {"name": "PartitionedCall/model_43/tf.math.add_83/Add", "op": "_FusedConv2D", "input": ["PartitionedCall/model_43/tf.math.multiply_260/Mul", "28486", "28488"], "device": "/device:CPU:0", "attr": {"TArgs": {"list": {"type": ["DT_FLOAT"]}}, "explicit_paddings": {"list": {}}, "padding": {"s": "U0FNRQ=="}, "num_host_args": {"i": "0"}, "epsilon": {"f": 0.0}, "fused_ops": {"list": {"s": ["Qmlhc0FkZA=="]}}, "dilations": {"list": {"i": ["1", "1", "1", "1"]}}, "data_format": {"s": "TkhXQw=="}, "strides": {"list": {"i": ["1", "1", "1", "1"]}}, "num_args": {"i": "1"}, "leakyrelu_alpha": {"f": 0.2}, "T": {"type": "DT_FLOAT"}, "use_cudnn_on_gpu": {"b": true}, "filter_format": {"s": "SFdJTw=="}}}, {"name": "PartitionedCall/model_43/tf.math.sigmoid_60/Sigmoid", "op": "Sigmoid", "input": ["PartitionedCall/model_43/tf.math.add_83/Add"], "attr": {"T": {"type": "DT_FLOAT"}}}, {"name": "PartitionedCall/model_43/tf.math.multiply_264/Mul", "op": "Mul", "input": ["PartitionedCall/model_43/tf.math.add_83/Add", "PartitionedCall/model_43/tf.math.sigmoid_60/Sigmoid"], "attr": {"T": {"type": "DT_FLOAT"}}}, {"name": "PartitionedCall/model_43/tf.strided_slice_20/StridedSlice", "op": "StridedSlice", "input": ["PartitionedCall/model_43/tf.math.multiply_264/Mul", "28502", "28504", "PartitionedCall/model_43/tf.strided_slice_20/ones_like"], "attr": {"ellipsis_mask": {"i": "0"}, "Index": {"type": "DT_INT64"}, "begin_mask": {"i": "15"}, "end_mask": {"i": "7"}, "shrink_axis_mask": {"i": "0"}, "new_axis_mask": {"i": "0"}, "T": {"type": "DT_FLOAT"}}}, {"name": "PartitionedCall/model_43/tf.strided_slice_21/StridedSlice", "op": "StridedSlice", "input": ["PartitionedCall/model_43/tf.math.multiply_264/Mul", "28490", "28492", "PartitionedCall/model_43/tf.strided_slice_21/ones_like"], "attr": {"Index": {"type": "DT_INT64"}, "end_mask": {"i": "7"}, "begin_mask": {"i": "7"}, "shrink_axis_mask": {"i": "0"}, "ellipsis_mask": {"i": "0"}, "T": {"type": "DT_FLOAT"}, "new_axis_mask": {"i": "0"}}}, {"name": "PartitionedCall/model_43/tf.math.add_84/Add", "op": "_FusedConv2D", "input": ["PartitionedCall/model_43/tf.strided_slice_21/StridedSlice", "28494", "28496"], "device": "/device:CPU:0", "attr": {"fused_ops": {"list": {"s": ["Qmlhc0FkZA=="]}}, "epsilon": {"f": 0.0}, "padding": {"s": "U0FNRQ=="}, "explicit_paddings": {"list": {}}, "TArgs": {"list": {"type": ["DT_FLOAT"]}}, "filter_format": {"s": "SFdJTw=="}, "use_cudnn_on_gpu": {"b": true}, "dilations": {"list": {"i": ["1", "1", "1", "1"]}}, "strides": {"list": {"i": ["1", "1", "1", "1"]}}, "num_args": {"i": "1"}, "num_host_args": {"i": "0"}, "data_format": {"s": "TkhXQw=="}, "T": {"type": "DT_FLOAT"}, "leakyrelu_alpha": {"f": 0.2}}}, {"name": "PartitionedCall/model_43/tf.math.sigmoid_61/Sigmoid", "op": "Sigmoid", "input": ["PartitionedCall/model_43/tf.math.add_84/Add"], "attr": {"T": {"type": "DT_FLOAT"}}}, {"name": "PartitionedCall/model_43/tf.math.multiply_268/Mul", "op": "Mul", "input": ["PartitionedCall/model_43/tf.math.add_84/Add", "PartitionedCall/model_43/tf.math.sigmoid_61/Sigmoid"], "attr": {"T": {"type": "DT_FLOAT"}}}, {"name": "PartitionedCall/model_43/tf.math.add_85/Add", "op": "_FusedConv2D", "input": ["PartitionedCall/model_43/tf.math.multiply_268/Mul", "28498", "28500"], "device": "/device:CPU:0", "attr": {"leakyrelu_alpha": {"f": 0.2}, "fused_ops": {"list": {"s": ["Qmlhc0FkZA=="]}}, "use_cudnn_on_gpu": {"b": true}, "dilations": {"list": {"i": ["1", "1", "1", "1"]}}, "padding": {"s": "U0FNRQ=="}, "epsilon": {"f": 0.0}, "strides": {"list": {"i": ["1", "1", "1", "1"]}}, "T": {"type": "DT_FLOAT"}, "filter_format": {"s": "SFdJTw=="}, "TArgs": {"list": {"type": ["DT_FLOAT"]}}, "num_host_args": {"i": "0"}, "num_args": {"i": "1"}, "explicit_paddings": {"list": {}}, "data_format": {"s": "TkhXQw=="}}}, {"name": "PartitionedCall/model_43/tf.math.sigmoid_62/Sigmoid", "op": "Sigmoid", "input": ["PartitionedCall/model_43/tf.math.add_85/Add"], "attr": {"T": {"type": "DT_FLOAT"}}}, {"name": "PartitionedCall/model_43/tf.math.multiply_272/Mul", "op": "Mul", "input": ["PartitionedCall/model_43/tf.math.add_85/Add", "PartitionedCall/model_43/tf.math.sigmoid_62/Sigmoid"], "attr": {"T": {"type": "DT_FLOAT"}}}, {"name": "PartitionedCall/model_43/tf.math.add_87/Add", "op": "AddV2", "input": ["PartitionedCall/model_43/tf.strided_slice_21/StridedSlice", "PartitionedCall/model_43/tf.math.multiply_272/Mul"], "attr": {"T": {"type": "DT_FLOAT"}}}, {"name": "PartitionedCall/model_43/tf.concat_24/concat", "op": "ConcatV2", "input": ["PartitionedCall/model_43/tf.strided_slice_20/StridedSlice", "PartitionedCall/model_43/tf.strided_slice_21/StridedSlice", "PartitionedCall/model_43/tf.math.add_87/Add", "PartitionedCall/model_43/tf.concat_24/concat/axis"], "attr": {"N": {"i": "3"}, "T": {"type": "DT_FLOAT"}, "Tidx": {"type": "DT_INT32"}}}, {"name": "PartitionedCall/model_43/tf.math.add_88/Add", "op": "_FusedConv2D", "input": ["PartitionedCall/model_43/tf.concat_24/concat", "28506", "28508"], "device": "/device:CPU:0", "attr": {"num_host_args": {"i": "0"}, "data_format": {"s": "TkhXQw=="}, "strides": {"list": {"i": ["1", "1", "1", "1"]}}, "explicit_paddings": {"list": {}}, "fused_ops": {"list": {"s": ["Qmlhc0FkZA=="]}}, "filter_format": {"s": "SFdJTw=="}, "leakyrelu_alpha": {"f": 0.2}, "padding": {"s": "U0FNRQ=="}, "TArgs": {"list": {"type": ["DT_FLOAT"]}}, "dilations": {"list": {"i": ["1", "1", "1", "1"]}}, "epsilon": {"f": 0.0}, "use_cudnn_on_gpu": {"b": true}, "num_args": {"i": "1"}, "T": {"type": "DT_FLOAT"}}}, {"name": "PartitionedCall/model_43/tf.math.sigmoid_63/Sigmoid", "op": "Sigmoid", "input": ["PartitionedCall/model_43/tf.math.add_88/Add"], "attr": {"T": {"type": "DT_FLOAT"}}}, {"name": "PartitionedCall/model_43/tf.math.multiply_278/Mul", "op": "Mul", "input": ["PartitionedCall/model_43/tf.math.add_88/Add", "PartitionedCall/model_43/tf.math.sigmoid_63/Sigmoid"], "attr": {"T": {"type": "DT_FLOAT"}}}, {"name": "PartitionedCall/model_43/tf.compat.v1.pad_9/Pad", "op": "Pad", "input": ["PartitionedCall/model_43/tf.math.multiply_278/Mul", "28510"], "attr": {"T": {"type": "DT_FLOAT"}, "Tpaddings": {"type": "DT_INT32"}}}, {"name": "PartitionedCall/model_43/tf.math.add_89/Add", "op": "_FusedConv2D", "input": ["PartitionedCall/model_43/tf.compat.v1.pad_9/Pad", "28512", "28514"], "device": "/device:CPU:0", "attr": {"TArgs": {"list": {"type": ["DT_FLOAT"]}}, "data_format": {"s": "TkhXQw=="}, "T": {"type": "DT_FLOAT"}, "epsilon": {"f": 0.0}, "dilations": {"list": {"i": ["1", "1", "1", "1"]}}, "explicit_paddings": {"list": {}}, "use_cudnn_on_gpu": {"b": true}, "leakyrelu_alpha": {"f": 0.2}, "fused_ops": {"list": {"s": ["Qmlhc0FkZA=="]}}, "strides": {"list": {"i": ["1", "2", "2", "1"]}}, "padding": {"s": "VkFMSUQ="}, "num_host_args": {"i": "0"}, "filter_format": {"s": "SFdJTw=="}, "num_args": {"i": "1"}}}, {"name": "PartitionedCall/model_43/tf.math.sigmoid_64/Sigmoid", "op": "Sigmoid", "input": ["PartitionedCall/model_43/tf.math.add_89/Add"], "attr": {"T": {"type": "DT_FLOAT"}}}, {"name": "PartitionedCall/model_43/tf.math.multiply_282/Mul", "op": "Mul", "input": ["PartitionedCall/model_43/tf.math.add_89/Add", "PartitionedCall/model_43/tf.math.sigmoid_64/Sigmoid"], "attr": {"T": {"type": "DT_FLOAT"}}}, {"name": "PartitionedCall/model_43/tf.math.add_90/Add", "op": "_FusedConv2D", "input": ["PartitionedCall/model_43/tf.math.multiply_282/Mul", "28516", "28518"], "device": "/device:CPU:0", "attr": {"padding": {"s": "U0FNRQ=="}, "fused_ops": {"list": {"s": ["Qmlhc0FkZA=="]}}, "TArgs": {"list": {"type": ["DT_FLOAT"]}}, "data_format": {"s": "TkhXQw=="}, "num_args": {"i": "1"}, "leakyrelu_alpha": {"f": 0.2}, "num_host_args": {"i": "0"}, "filter_format": {"s": "SFdJTw=="}, "use_cudnn_on_gpu": {"b": true}, "epsilon": {"f": 0.0}, "dilations": {"list": {"i": ["1", "1", "1", "1"]}}, "T": {"type": "DT_FLOAT"}, "explicit_paddings": {"list": {}}, "strides": {"list": {"i": ["1", "1", "1", "1"]}}}}, {"name": "PartitionedCall/model_43/tf.math.sigmoid_65/Sigmoid", "op": "Sigmoid", "input": ["PartitionedCall/model_43/tf.math.add_90/Add"], "attr": {"T": {"type": "DT_FLOAT"}}}, {"name": "PartitionedCall/model_43/tf.math.multiply_286/Mul", "op": "Mul", "input": ["PartitionedCall/model_43/tf.math.add_90/Add", "PartitionedCall/model_43/tf.math.sigmoid_65/Sigmoid"], "attr": {"T": {"type": "DT_FLOAT"}}}, {"name": "PartitionedCall/model_43/tf.strided_slice_22/StridedSlice", "op": "StridedSlice", "input": ["PartitionedCall/model_43/tf.math.multiply_286/Mul", "28540", "28542", "PartitionedCall/model_43/tf.strided_slice_22/ones_like"], "attr": {"new_axis_mask": {"i": "0"}, "end_mask": {"i": "7"}, "Index": {"type": "DT_INT64"}, "shrink_axis_mask": {"i": "0"}, "begin_mask": {"i": "15"}, "T": {"type": "DT_FLOAT"}, "ellipsis_mask": {"i": "0"}}}, {"name": "PartitionedCall/model_43/tf.strided_slice_23/StridedSlice", "op": "StridedSlice", "input": ["PartitionedCall/model_43/tf.math.multiply_286/Mul", "28520", "28522", "PartitionedCall/model_43/tf.strided_slice_23/ones_like"], "attr": {"new_axis_mask": {"i": "0"}, "ellipsis_mask": {"i": "0"}, "end_mask": {"i": "7"}, "begin_mask": {"i": "7"}, "Index": {"type": "DT_INT64"}, "shrink_axis_mask": {"i": "0"}, "T": {"type": "DT_FLOAT"}}}, {"name": "PartitionedCall/model_43/tf.math.add_91/Add", "op": "_FusedConv2D", "input": ["PartitionedCall/model_43/tf.strided_slice_23/StridedSlice", "28524", "28526"], "device": "/device:CPU:0", "attr": {"filter_format": {"s": "SFdJTw=="}, "leakyrelu_alpha": {"f": 0.2}, "fused_ops": {"list": {"s": ["Qmlhc0FkZA=="]}}, "use_cudnn_on_gpu": {"b": true}, "num_args": {"i": "1"}, "explicit_paddings": {"list": {}}, "data_format": {"s": "TkhXQw=="}, "num_host_args": {"i": "0"}, "epsilon": {"f": 0.0}, "padding": {"s": "U0FNRQ=="}, "dilations": {"list": {"i": ["1", "1", "1", "1"]}}, "T": {"type": "DT_FLOAT"}, "TArgs": {"list": {"type": ["DT_FLOAT"]}}, "strides": {"list": {"i": ["1", "1", "1", "1"]}}}}, {"name": "PartitionedCall/model_43/tf.math.sigmoid_66/Sigmoid", "op": "Sigmoid", "input": ["PartitionedCall/model_43/tf.math.add_91/Add"], "attr": {"T": {"type": "DT_FLOAT"}}}, {"name": "PartitionedCall/model_43/tf.math.multiply_290/Mul", "op": "Mul", "input": ["PartitionedCall/model_43/tf.math.add_91/Add", "PartitionedCall/model_43/tf.math.sigmoid_66/Sigmoid"], "attr": {"T": {"type": "DT_FLOAT"}}}, {"name": "PartitionedCall/model_43/tf.math.add_92/Add", "op": "_FusedConv2D", "input": ["PartitionedCall/model_43/tf.math.multiply_290/Mul", "28528", "28530"], "device": "/device:CPU:0", "attr": {"fused_ops": {"list": {"s": ["Qmlhc0FkZA=="]}}, "num_args": {"i": "1"}, "TArgs": {"list": {"type": ["DT_FLOAT"]}}, "filter_format": {"s": "SFdJTw=="}, "dilations": {"list": {"i": ["1", "1", "1", "1"]}}, "strides": {"list": {"i": ["1", "1", "1", "1"]}}, "epsilon": {"f": 0.0}, "leakyrelu_alpha": {"f": 0.2}, "use_cudnn_on_gpu": {"b": true}, "num_host_args": {"i": "0"}, "padding": {"s": "U0FNRQ=="}, "T": {"type": "DT_FLOAT"}, "explicit_paddings": {"list": {}}, "data_format": {"s": "TkhXQw=="}}}, {"name": "PartitionedCall/model_43/tf.math.sigmoid_67/Sigmoid", "op": "Sigmoid", "input": ["PartitionedCall/model_43/tf.math.add_92/Add"], "attr": {"T": {"type": "DT_FLOAT"}}}, {"name": "PartitionedCall/model_43/tf.math.multiply_294/Mul", "op": "Mul", "input": ["PartitionedCall/model_43/tf.math.add_92/Add", "PartitionedCall/model_43/tf.math.sigmoid_67/Sigmoid"], "attr": {"T": {"type": "DT_FLOAT"}}}, {"name": "PartitionedCall/model_43/tf.math.add_94/Add", "op": "AddV2", "input": ["PartitionedCall/model_43/tf.strided_slice_23/StridedSlice", "PartitionedCall/model_43/tf.math.multiply_294/Mul"], "attr": {"T": {"type": "DT_FLOAT"}}}, {"name": "PartitionedCall/model_43/tf.math.add_95/Add", "op": "_FusedConv2D", "input": ["PartitionedCall/model_43/tf.math.add_94/Add", "28532", "28534"], "device": "/device:CPU:0", "attr": {"num_host_args": {"i": "0"}, "leakyrelu_alpha": {"f": 0.2}, "use_cudnn_on_gpu": {"b": true}, "filter_format": {"s": "SFdJTw=="}, "T": {"type": "DT_FLOAT"}, "epsilon": {"f": 0.0}, "dilations": {"list": {"i": ["1", "1", "1", "1"]}}, "padding": {"s": "U0FNRQ=="}, "TArgs": {"list": {"type": ["DT_FLOAT"]}}, "strides": {"list": {"i": ["1", "1", "1", "1"]}}, "num_args": {"i": "1"}, "data_format": {"s": "TkhXQw=="}, "fused_ops": {"list": {"s": ["Qmlhc0FkZA=="]}}, "explicit_paddings": {"list": {}}}}, {"name": "PartitionedCall/model_43/tf.math.sigmoid_68/Sigmoid", "op": "Sigmoid", "input": ["PartitionedCall/model_43/tf.math.add_95/Add"], "attr": {"T": {"type": "DT_FLOAT"}}}, {"name": "PartitionedCall/model_43/tf.math.multiply_300/Mul", "op": "Mul", "input": ["PartitionedCall/model_43/tf.math.add_95/Add", "PartitionedCall/model_43/tf.math.sigmoid_68/Sigmoid"], "attr": {"T": {"type": "DT_FLOAT"}}}, {"name": "PartitionedCall/model_43/tf.math.add_96/Add", "op": "_FusedConv2D", "input": ["PartitionedCall/model_43/tf.math.multiply_300/Mul", "28536", "28538"], "device": "/device:CPU:0", "attr": {"TArgs": {"list": {"type": ["DT_FLOAT"]}}, "dilations": {"list": {"i": ["1", "1", "1", "1"]}}, "use_cudnn_on_gpu": {"b": true}, "explicit_paddings": {"list": {}}, "T": {"type": "DT_FLOAT"}, "data_format": {"s": "TkhXQw=="}, "num_host_args": {"i": "0"}, "filter_format": {"s": "SFdJTw=="}, "leakyrelu_alpha": {"f": 0.2}, "num_args": {"i": "1"}, "fused_ops": {"list": {"s": ["Qmlhc0FkZA=="]}}, "padding": {"s": "U0FNRQ=="}, "strides": {"list": {"i": ["1", "1", "1", "1"]}}, "epsilon": {"f": 0.0}}}, {"name": "PartitionedCall/model_43/tf.math.sigmoid_69/Sigmoid", "op": "Sigmoid", "input": ["PartitionedCall/model_43/tf.math.add_96/Add"], "attr": {"T": {"type": "DT_FLOAT"}}}, {"name": "PartitionedCall/model_43/tf.math.multiply_304/Mul", "op": "Mul", "input": ["PartitionedCall/model_43/tf.math.add_96/Add", "PartitionedCall/model_43/tf.math.sigmoid_69/Sigmoid"], "attr": {"T": {"type": "DT_FLOAT"}}}, {"name": "PartitionedCall/model_43/tf.math.add_98/Add", "op": "AddV2", "input": ["PartitionedCall/model_43/tf.math.add_94/Add", "PartitionedCall/model_43/tf.math.multiply_304/Mul"], "attr": {"T": {"type": "DT_FLOAT"}}}, {"name": "PartitionedCall/model_43/tf.concat_25/concat", "op": "ConcatV2", "input": ["PartitionedCall/model_43/tf.strided_slice_22/StridedSlice", "PartitionedCall/model_43/tf.strided_slice_23/StridedSlice", "PartitionedCall/model_43/tf.math.add_94/Add", "PartitionedCall/model_43/tf.math.add_98/Add", "PartitionedCall/model_43/tf.concat_25/concat/axis"], "attr": {"T": {"type": "DT_FLOAT"}, "N": {"i": "4"}, "Tidx": {"type": "DT_INT32"}}}, {"name": "PartitionedCall/model_43/tf.math.add_99/Add", "op": "_FusedConv2D", "input": ["PartitionedCall/model_43/tf.concat_25/concat", "28544", "28546"], "device": "/device:CPU:0", "attr": {"use_cudnn_on_gpu": {"b": true}, "T": {"type": "DT_FLOAT"}, "num_args": {"i": "1"}, "strides": {"list": {"i": ["1", "1", "1", "1"]}}, "dilations": {"list": {"i": ["1", "1", "1", "1"]}}, "fused_ops": {"list": {"s": ["Qmlhc0FkZA=="]}}, "padding": {"s": "U0FNRQ=="}, "leakyrelu_alpha": {"f": 0.2}, "data_format": {"s": "TkhXQw=="}, "epsilon": {"f": 0.0}, "TArgs": {"list": {"type": ["DT_FLOAT"]}}, "num_host_args": {"i": "0"}, "explicit_paddings": {"list": {}}, "filter_format": {"s": "SFdJTw=="}}}, {"name": "PartitionedCall/model_43/tf.math.sigmoid_70/Sigmoid", "op": "Sigmoid", "input": ["PartitionedCall/model_43/tf.math.add_99/Add"], "attr": {"T": {"type": "DT_FLOAT"}}}, {"name": "PartitionedCall/model_43/tf.math.multiply_310/Mul", "op": "Mul", "input": ["PartitionedCall/model_43/tf.math.add_99/Add", "PartitionedCall/model_43/tf.math.sigmoid_70/Sigmoid"], "attr": {"T": {"type": "DT_FLOAT"}}}, {"name": "PartitionedCall/model_43/tf.compat.v1.pad_10/Pad", "op": "Pad", "input": ["PartitionedCall/model_43/tf.math.multiply_310/Mul", "28548"], "attr": {"T": {"type": "DT_FLOAT"}, "Tpaddings": {"type": "DT_INT32"}}}, {"name": "PartitionedCall/model_43/tf.math.add_100/Add", "op": "_FusedConv2D", "input": ["PartitionedCall/model_43/tf.compat.v1.pad_10/Pad", "28550", "28552"], "device": "/device:CPU:0", "attr": {"epsilon": {"f": 0.0}, "num_host_args": {"i": "0"}, "TArgs": {"list": {"type": ["DT_FLOAT"]}}, "dilations": {"list": {"i": ["1", "1", "1", "1"]}}, "num_args": {"i": "1"}, "padding": {"s": "VkFMSUQ="}, "data_format": {"s": "TkhXQw=="}, "T": {"type": "DT_FLOAT"}, "fused_ops": {"list": {"s": ["Qmlhc0FkZA=="]}}, "use_cudnn_on_gpu": {"b": true}, "explicit_paddings": {"list": {}}, "leakyrelu_alpha": {"f": 0.2}, "filter_format": {"s": "SFdJTw=="}, "strides": {"list": {"i": ["1", "2", "2", "1"]}}}}, {"name": "PartitionedCall/model_43/tf.math.sigmoid_71/Sigmoid", "op": "Sigmoid", "input": ["PartitionedCall/model_43/tf.math.add_100/Add"], "attr": {"T": {"type": "DT_FLOAT"}}}, {"name": "PartitionedCall/model_43/tf.math.multiply_314/Mul", "op": "Mul", "input": ["PartitionedCall/model_43/tf.math.add_100/Add", "PartitionedCall/model_43/tf.math.sigmoid_71/Sigmoid"], "attr": {"T": {"type": "DT_FLOAT"}}}, {"name": "PartitionedCall/model_43/tf.math.add_101/Add", "op": "_FusedConv2D", "input": ["PartitionedCall/model_43/tf.math.multiply_314/Mul", "28554", "28556"], "device": "/device:CPU:0", "attr": {"T": {"type": "DT_FLOAT"}, "strides": {"list": {"i": ["1", "1", "1", "1"]}}, "padding": {"s": "U0FNRQ=="}, "fused_ops": {"list": {"s": ["Qmlhc0FkZA=="]}}, "epsilon": {"f": 0.0}, "use_cudnn_on_gpu": {"b": true}, "data_format": {"s": "TkhXQw=="}, "TArgs": {"list": {"type": ["DT_FLOAT"]}}, "num_host_args": {"i": "0"}, "num_args": {"i": "1"}, "leakyrelu_alpha": {"f": 0.2}, "explicit_paddings": {"list": {}}, "dilations": {"list": {"i": ["1", "1", "1", "1"]}}, "filter_format": {"s": "SFdJTw=="}}}, {"name": "PartitionedCall/model_43/tf.math.sigmoid_72/Sigmoid", "op": "Sigmoid", "input": ["PartitionedCall/model_43/tf.math.add_101/Add"], "attr": {"T": {"type": "DT_FLOAT"}}}, {"name": "PartitionedCall/model_43/tf.math.multiply_318/Mul", "op": "Mul", "input": ["PartitionedCall/model_43/tf.math.add_101/Add", "PartitionedCall/model_43/tf.math.sigmoid_72/Sigmoid"], "attr": {"T": {"type": "DT_FLOAT"}}}, {"name": "PartitionedCall/model_43/tf.strided_slice_24/StridedSlice", "op": "StridedSlice", "input": ["PartitionedCall/model_43/tf.math.multiply_318/Mul", "28578", "28580", "PartitionedCall/model_43/tf.strided_slice_24/ones_like"], "attr": {"T": {"type": "DT_FLOAT"}, "shrink_axis_mask": {"i": "0"}, "ellipsis_mask": {"i": "0"}, "begin_mask": {"i": "15"}, "new_axis_mask": {"i": "0"}, "Index": {"type": "DT_INT64"}, "end_mask": {"i": "7"}}}, {"name": "PartitionedCall/model_43/tf.strided_slice_25/StridedSlice", "op": "StridedSlice", "input": ["PartitionedCall/model_43/tf.math.multiply_318/Mul", "28558", "28560", "PartitionedCall/model_43/tf.strided_slice_25/ones_like"], "attr": {"begin_mask": {"i": "7"}, "T": {"type": "DT_FLOAT"}, "Index": {"type": "DT_INT64"}, "shrink_axis_mask": {"i": "0"}, "end_mask": {"i": "7"}, "ellipsis_mask": {"i": "0"}, "new_axis_mask": {"i": "0"}}}, {"name": "PartitionedCall/model_43/tf.math.add_102/Add", "op": "_FusedConv2D", "input": ["PartitionedCall/model_43/tf.strided_slice_25/StridedSlice", "28562", "28564"], "device": "/device:CPU:0", "attr": {"TArgs": {"list": {"type": ["DT_FLOAT"]}}, "fused_ops": {"list": {"s": ["Qmlhc0FkZA=="]}}, "strides": {"list": {"i": ["1", "1", "1", "1"]}}, "T": {"type": "DT_FLOAT"}, "use_cudnn_on_gpu": {"b": true}, "epsilon": {"f": 0.0}, "filter_format": {"s": "SFdJTw=="}, "num_host_args": {"i": "0"}, "num_args": {"i": "1"}, "padding": {"s": "U0FNRQ=="}, "explicit_paddings": {"list": {}}, "data_format": {"s": "TkhXQw=="}, "leakyrelu_alpha": {"f": 0.2}, "dilations": {"list": {"i": ["1", "1", "1", "1"]}}}}, {"name": "PartitionedCall/model_43/tf.math.sigmoid_73/Sigmoid", "op": "Sigmoid", "input": ["PartitionedCall/model_43/tf.math.add_102/Add"], "attr": {"T": {"type": "DT_FLOAT"}}}, {"name": "PartitionedCall/model_43/tf.math.multiply_322/Mul", "op": "Mul", "input": ["PartitionedCall/model_43/tf.math.add_102/Add", "PartitionedCall/model_43/tf.math.sigmoid_73/Sigmoid"], "attr": {"T": {"type": "DT_FLOAT"}}}, {"name": "PartitionedCall/model_43/tf.math.add_103/Add", "op": "_FusedConv2D", "input": ["PartitionedCall/model_43/tf.math.multiply_322/Mul", "28566", "28568"], "device": "/device:CPU:0", "attr": {"filter_format": {"s": "SFdJTw=="}, "num_args": {"i": "1"}, "num_host_args": {"i": "0"}, "dilations": {"list": {"i": ["1", "1", "1", "1"]}}, "fused_ops": {"list": {"s": ["Qmlhc0FkZA=="]}}, "use_cudnn_on_gpu": {"b": true}, "padding": {"s": "U0FNRQ=="}, "explicit_paddings": {"list": {}}, "leakyrelu_alpha": {"f": 0.2}, "TArgs": {"list": {"type": ["DT_FLOAT"]}}, "data_format": {"s": "TkhXQw=="}, "strides": {"list": {"i": ["1", "1", "1", "1"]}}, "epsilon": {"f": 0.0}, "T": {"type": "DT_FLOAT"}}}, {"name": "PartitionedCall/model_43/tf.math.sigmoid_74/Sigmoid", "op": "Sigmoid", "input": ["PartitionedCall/model_43/tf.math.add_103/Add"], "attr": {"T": {"type": "DT_FLOAT"}}}, {"name": "PartitionedCall/model_43/tf.math.multiply_326/Mul", "op": "Mul", "input": ["PartitionedCall/model_43/tf.math.add_103/Add", "PartitionedCall/model_43/tf.math.sigmoid_74/Sigmoid"], "attr": {"T": {"type": "DT_FLOAT"}}}, {"name": "PartitionedCall/model_43/tf.math.add_105/Add", "op": "AddV2", "input": ["PartitionedCall/model_43/tf.strided_slice_25/StridedSlice", "PartitionedCall/model_43/tf.math.multiply_326/Mul"], "attr": {"T": {"type": "DT_FLOAT"}}}, {"name": "PartitionedCall/model_43/tf.math.add_106/Add", "op": "_FusedConv2D", "input": ["PartitionedCall/model_43/tf.math.add_105/Add", "28570", "28572"], "device": "/device:CPU:0", "attr": {"leakyrelu_alpha": {"f": 0.2}, "data_format": {"s": "TkhXQw=="}, "strides": {"list": {"i": ["1", "1", "1", "1"]}}, "T": {"type": "DT_FLOAT"}, "use_cudnn_on_gpu": {"b": true}, "epsilon": {"f": 0.0}, "num_host_args": {"i": "0"}, "filter_format": {"s": "SFdJTw=="}, "explicit_paddings": {"list": {}}, "fused_ops": {"list": {"s": ["Qmlhc0FkZA=="]}}, "padding": {"s": "U0FNRQ=="}, "dilations": {"list": {"i": ["1", "1", "1", "1"]}}, "TArgs": {"list": {"type": ["DT_FLOAT"]}}, "num_args": {"i": "1"}}}, {"name": "PartitionedCall/model_43/tf.math.sigmoid_75/Sigmoid", "op": "Sigmoid", "input": ["PartitionedCall/model_43/tf.math.add_106/Add"], "attr": {"T": {"type": "DT_FLOAT"}}}, {"name": "PartitionedCall/model_43/tf.math.multiply_332/Mul", "op": "Mul", "input": ["PartitionedCall/model_43/tf.math.add_106/Add", "PartitionedCall/model_43/tf.math.sigmoid_75/Sigmoid"], "attr": {"T": {"type": "DT_FLOAT"}}}, {"name": "PartitionedCall/model_43/tf.math.add_107/Add", "op": "_FusedConv2D", "input": ["PartitionedCall/model_43/tf.math.multiply_332/Mul", "28574", "28576"], "device": "/device:CPU:0", "attr": {"num_host_args": {"i": "0"}, "explicit_paddings": {"list": {}}, "use_cudnn_on_gpu": {"b": true}, "leakyrelu_alpha": {"f": 0.2}, "strides": {"list": {"i": ["1", "1", "1", "1"]}}, "filter_format": {"s": "SFdJTw=="}, "fused_ops": {"list": {"s": ["Qmlhc0FkZA=="]}}, "epsilon": {"f": 0.0}, "dilations": {"list": {"i": ["1", "1", "1", "1"]}}, "data_format": {"s": "TkhXQw=="}, "num_args": {"i": "1"}, "T": {"type": "DT_FLOAT"}, "TArgs": {"list": {"type": ["DT_FLOAT"]}}, "padding": {"s": "U0FNRQ=="}}}, {"name": "PartitionedCall/model_43/tf.math.sigmoid_76/Sigmoid", "op": "Sigmoid", "input": ["PartitionedCall/model_43/tf.math.add_107/Add"], "attr": {"T": {"type": "DT_FLOAT"}}}, {"name": "PartitionedCall/model_43/tf.math.multiply_336/Mul", "op": "Mul", "input": ["PartitionedCall/model_43/tf.math.add_107/Add", "PartitionedCall/model_43/tf.math.sigmoid_76/Sigmoid"], "attr": {"T": {"type": "DT_FLOAT"}}}, {"name": "PartitionedCall/model_43/tf.math.add_109/Add", "op": "AddV2", "input": ["PartitionedCall/model_43/tf.math.add_105/Add", "PartitionedCall/model_43/tf.math.multiply_336/Mul"], "attr": {"T": {"type": "DT_FLOAT"}}}, {"name": "PartitionedCall/model_43/tf.concat_26/concat", "op": "ConcatV2", "input": ["PartitionedCall/model_43/tf.strided_slice_24/StridedSlice", "PartitionedCall/model_43/tf.strided_slice_25/StridedSlice", "PartitionedCall/model_43/tf.math.add_105/Add", "PartitionedCall/model_43/tf.math.add_109/Add", "PartitionedCall/model_43/tf.concat_26/concat/axis"], "attr": {"Tidx": {"type": "DT_INT32"}, "T": {"type": "DT_FLOAT"}, "N": {"i": "4"}}}, {"name": "PartitionedCall/model_43/tf.math.add_110/Add", "op": "_FusedConv2D", "input": ["PartitionedCall/model_43/tf.concat_26/concat", "28582", "28584"], "device": "/device:CPU:0", "attr": {"T": {"type": "DT_FLOAT"}, "num_args": {"i": "1"}, "fused_ops": {"list": {"s": ["Qmlhc0FkZA=="]}}, "leakyrelu_alpha": {"f": 0.2}, "strides": {"list": {"i": ["1", "1", "1", "1"]}}, "padding": {"s": "U0FNRQ=="}, "use_cudnn_on_gpu": {"b": true}, "num_host_args": {"i": "0"}, "explicit_paddings": {"list": {}}, "TArgs": {"list": {"type": ["DT_FLOAT"]}}, "epsilon": {"f": 0.0}, "dilations": {"list": {"i": ["1", "1", "1", "1"]}}, "data_format": {"s": "TkhXQw=="}, "filter_format": {"s": "SFdJTw=="}}}, {"name": "PartitionedCall/model_43/tf.math.sigmoid_77/Sigmoid", "op": "Sigmoid", "input": ["PartitionedCall/model_43/tf.math.add_110/Add"], "attr": {"T": {"type": "DT_FLOAT"}}}, {"name": "PartitionedCall/model_43/tf.math.multiply_342/Mul", "op": "Mul", "input": ["PartitionedCall/model_43/tf.math.add_110/Add", "PartitionedCall/model_43/tf.math.sigmoid_77/Sigmoid"], "attr": {"T": {"type": "DT_FLOAT"}}}, {"name": "PartitionedCall/model_43/tf.compat.v1.pad_11/Pad", "op": "Pad", "input": ["PartitionedCall/model_43/tf.math.multiply_342/Mul", "28586"], "attr": {"T": {"type": "DT_FLOAT"}, "Tpaddings": {"type": "DT_INT32"}}}, {"name": "PartitionedCall/model_43/tf.math.add_111/Add", "op": "_FusedConv2D", "input": ["PartitionedCall/model_43/tf.compat.v1.pad_11/Pad", "28588", "28590"], "device": "/device:CPU:0", "attr": {"fused_ops": {"list": {"s": ["Qmlhc0FkZA=="]}}, "leakyrelu_alpha": {"f": 0.2}, "data_format": {"s": "TkhXQw=="}, "explicit_paddings": {"list": {}}, "use_cudnn_on_gpu": {"b": true}, "TArgs": {"list": {"type": ["DT_FLOAT"]}}, "num_host_args": {"i": "0"}, "epsilon": {"f": 0.0}, "padding": {"s": "VkFMSUQ="}, "T": {"type": "DT_FLOAT"}, "filter_format": {"s": "SFdJTw=="}, "dilations": {"list": {"i": ["1", "1", "1", "1"]}}, "num_args": {"i": "1"}, "strides": {"list": {"i": ["1", "2", "2", "1"]}}}}, {"name": "PartitionedCall/model_43/tf.math.sigmoid_78/Sigmoid", "op": "Sigmoid", "input": ["PartitionedCall/model_43/tf.math.add_111/Add"], "attr": {"T": {"type": "DT_FLOAT"}}}, {"name": "PartitionedCall/model_43/tf.math.multiply_346/Mul", "op": "Mul", "input": ["PartitionedCall/model_43/tf.math.add_111/Add", "PartitionedCall/model_43/tf.math.sigmoid_78/Sigmoid"], "attr": {"T": {"type": "DT_FLOAT"}}}, {"name": "PartitionedCall/model_43/tf.math.add_112/Add", "op": "_FusedConv2D", "input": ["PartitionedCall/model_43/tf.math.multiply_346/Mul", "28592", "28594"], "device": "/device:CPU:0", "attr": {"padding": {"s": "U0FNRQ=="}, "strides": {"list": {"i": ["1", "1", "1", "1"]}}, "epsilon": {"f": 0.0}, "dilations": {"list": {"i": ["1", "1", "1", "1"]}}, "T": {"type": "DT_FLOAT"}, "TArgs": {"list": {"type": ["DT_FLOAT"]}}, "data_format": {"s": "TkhXQw=="}, "leakyrelu_alpha": {"f": 0.2}, "use_cudnn_on_gpu": {"b": true}, "filter_format": {"s": "SFdJTw=="}, "explicit_paddings": {"list": {}}, "num_host_args": {"i": "0"}, "fused_ops": {"list": {"s": ["Qmlhc0FkZA=="]}}, "num_args": {"i": "1"}}}, {"name": "PartitionedCall/model_43/tf.math.sigmoid_79/Sigmoid", "op": "Sigmoid", "input": ["PartitionedCall/model_43/tf.math.add_112/Add"], "attr": {"T": {"type": "DT_FLOAT"}}}, {"name": "PartitionedCall/model_43/tf.math.multiply_350/Mul", "op": "Mul", "input": ["PartitionedCall/model_43/tf.math.add_112/Add", "PartitionedCall/model_43/tf.math.sigmoid_79/Sigmoid"], "attr": {"T": {"type": "DT_FLOAT"}}}, {"name": "PartitionedCall/model_43/tf.strided_slice_26/StridedSlice", "op": "StridedSlice", "input": ["PartitionedCall/model_43/tf.math.multiply_350/Mul", "28608", "28610", "PartitionedCall/model_43/tf.strided_slice_26/ones_like"], "attr": {"ellipsis_mask": {"i": "0"}, "Index": {"type": "DT_INT64"}, "end_mask": {"i": "7"}, "T": {"type": "DT_FLOAT"}, "new_axis_mask": {"i": "0"}, "shrink_axis_mask": {"i": "0"}, "begin_mask": {"i": "15"}}}, {"name": "PartitionedCall/model_43/tf.strided_slice_27/StridedSlice", "op": "StridedSlice", "input": ["PartitionedCall/model_43/tf.math.multiply_350/Mul", "28596", "28598", "PartitionedCall/model_43/tf.strided_slice_27/ones_like"], "attr": {"begin_mask": {"i": "7"}, "T": {"type": "DT_FLOAT"}, "shrink_axis_mask": {"i": "0"}, "new_axis_mask": {"i": "0"}, "ellipsis_mask": {"i": "0"}, "Index": {"type": "DT_INT64"}, "end_mask": {"i": "7"}}}, {"name": "PartitionedCall/model_43/tf.math.add_113/Add", "op": "_FusedConv2D", "input": ["PartitionedCall/model_43/tf.strided_slice_27/StridedSlice", "28600", "28602"], "device": "/device:CPU:0", "attr": {"epsilon": {"f": 0.0}, "TArgs": {"list": {"type": ["DT_FLOAT"]}}, "fused_ops": {"list": {"s": ["Qmlhc0FkZA=="]}}, "T": {"type": "DT_FLOAT"}, "num_host_args": {"i": "0"}, "use_cudnn_on_gpu": {"b": true}, "dilations": {"list": {"i": ["1", "1", "1", "1"]}}, "padding": {"s": "U0FNRQ=="}, "strides": {"list": {"i": ["1", "1", "1", "1"]}}, "explicit_paddings": {"list": {}}, "num_args": {"i": "1"}, "filter_format": {"s": "SFdJTw=="}, "leakyrelu_alpha": {"f": 0.2}, "data_format": {"s": "TkhXQw=="}}}, {"name": "PartitionedCall/model_43/tf.math.sigmoid_80/Sigmoid", "op": "Sigmoid", "input": ["PartitionedCall/model_43/tf.math.add_113/Add"], "attr": {"T": {"type": "DT_FLOAT"}}}, {"name": "PartitionedCall/model_43/tf.math.multiply_354/Mul", "op": "Mul", "input": ["PartitionedCall/model_43/tf.math.add_113/Add", "PartitionedCall/model_43/tf.math.sigmoid_80/Sigmoid"], "attr": {"T": {"type": "DT_FLOAT"}}}, {"name": "PartitionedCall/model_43/tf.math.add_114/Add", "op": "_FusedConv2D", "input": ["PartitionedCall/model_43/tf.math.multiply_354/Mul", "28604", "28606"], "device": "/device:CPU:0", "attr": {"TArgs": {"list": {"type": ["DT_FLOAT"]}}, "dilations": {"list": {"i": ["1", "1", "1", "1"]}}, "num_args": {"i": "1"}, "data_format": {"s": "TkhXQw=="}, "explicit_paddings": {"list": {}}, "fused_ops": {"list": {"s": ["Qmlhc0FkZA=="]}}, "padding": {"s": "U0FNRQ=="}, "num_host_args": {"i": "0"}, "filter_format": {"s": "SFdJTw=="}, "use_cudnn_on_gpu": {"b": true}, "leakyrelu_alpha": {"f": 0.2}, "epsilon": {"f": 0.0}, "T": {"type": "DT_FLOAT"}, "strides": {"list": {"i": ["1", "1", "1", "1"]}}}}, {"name": "PartitionedCall/model_43/tf.math.sigmoid_81/Sigmoid", "op": "Sigmoid", "input": ["PartitionedCall/model_43/tf.math.add_114/Add"], "attr": {"T": {"type": "DT_FLOAT"}}}, {"name": "PartitionedCall/model_43/tf.math.multiply_358/Mul", "op": "Mul", "input": ["PartitionedCall/model_43/tf.math.add_114/Add", "PartitionedCall/model_43/tf.math.sigmoid_81/Sigmoid"], "attr": {"T": {"type": "DT_FLOAT"}}}, {"name": "PartitionedCall/model_43/tf.math.add_116/Add", "op": "AddV2", "input": ["PartitionedCall/model_43/tf.strided_slice_27/StridedSlice", "PartitionedCall/model_43/tf.math.multiply_358/Mul"], "attr": {"T": {"type": "DT_FLOAT"}}}, {"name": "PartitionedCall/model_43/tf.concat_27/concat", "op": "ConcatV2", "input": ["PartitionedCall/model_43/tf.strided_slice_26/StridedSlice", "PartitionedCall/model_43/tf.strided_slice_27/StridedSlice", "PartitionedCall/model_43/tf.math.add_116/Add", "PartitionedCall/model_43/tf.concat_27/concat/axis"], "attr": {"N": {"i": "3"}, "T": {"type": "DT_FLOAT"}, "Tidx": {"type": "DT_INT32"}}}, {"name": "PartitionedCall/model_43/tf.math.add_117/Add", "op": "_FusedConv2D", "input": ["PartitionedCall/model_43/tf.concat_27/concat", "28612", "28614"], "device": "/device:CPU:0", "attr": {"explicit_paddings": {"list": {}}, "num_host_args": {"i": "0"}, "fused_ops": {"list": {"s": ["Qmlhc0FkZA=="]}}, "num_args": {"i": "1"}, "TArgs": {"list": {"type": ["DT_FLOAT"]}}, "epsilon": {"f": 0.0}, "data_format": {"s": "TkhXQw=="}, "strides": {"list": {"i": ["1", "1", "1", "1"]}}, "use_cudnn_on_gpu": {"b": true}, "T": {"type": "DT_FLOAT"}, "leakyrelu_alpha": {"f": 0.2}, "dilations": {"list": {"i": ["1", "1", "1", "1"]}}, "filter_format": {"s": "SFdJTw=="}, "padding": {"s": "U0FNRQ=="}}}, {"name": "PartitionedCall/model_43/tf.math.sigmoid_82/Sigmoid", "op": "Sigmoid", "input": ["PartitionedCall/model_43/tf.math.add_117/Add"], "attr": {"T": {"type": "DT_FLOAT"}}}, {"name": "PartitionedCall/model_43/tf.math.multiply_364/Mul", "op": "Mul", "input": ["PartitionedCall/model_43/tf.math.add_117/Add", "PartitionedCall/model_43/tf.math.sigmoid_82/Sigmoid"], "attr": {"T": {"type": "DT_FLOAT"}}}, {"name": "PartitionedCall/model_43/tf.math.add_118/Add", "op": "_FusedConv2D", "input": ["PartitionedCall/model_43/tf.math.multiply_364/Mul", "28616", "28618"], "device": "/device:CPU:0", "attr": {"data_format": {"s": "TkhXQw=="}, "leakyrelu_alpha": {"f": 0.2}, "num_args": {"i": "1"}, "num_host_args": {"i": "0"}, "padding": {"s": "U0FNRQ=="}, "dilations": {"list": {"i": ["1", "1", "1", "1"]}}, "fused_ops": {"list": {"s": ["Qmlhc0FkZA=="]}}, "strides": {"list": {"i": ["1", "1", "1", "1"]}}, "filter_format": {"s": "SFdJTw=="}, "explicit_paddings": {"list": {}}, "use_cudnn_on_gpu": {"b": true}, "epsilon": {"f": 0.0}, "TArgs": {"list": {"type": ["DT_FLOAT"]}}, "T": {"type": "DT_FLOAT"}}}, {"name": "PartitionedCall/model_43/tf.math.sigmoid_83/Sigmoid", "op": "Sigmoid", "input": ["PartitionedCall/model_43/tf.math.add_118/Add"], "attr": {"T": {"type": "DT_FLOAT"}}}, {"name": "PartitionedCall/model_43/tf.math.multiply_368/Mul", "op": "Mul", "input": ["PartitionedCall/model_43/tf.math.add_118/Add", "PartitionedCall/model_43/tf.math.sigmoid_83/Sigmoid"], "attr": {"T": {"type": "DT_FLOAT"}}}, {"name": "PartitionedCall/model_43/tf.compat.v1.nn.pool_3/max_pool", "op": "MaxPool", "input": ["PartitionedCall/model_43/tf.math.multiply_368/Mul"], "attr": {"padding": {"s": "U0FNRQ=="}, "data_format": {"s": "TkhXQw=="}, "strides": {"list": {"i": ["1", "1", "1", "1"]}}, "explicit_paddings": {"list": {}}, "ksize": {"list": {"i": ["1", "5", "5", "1"]}}, "T": {"type": "DT_FLOAT"}}}, {"name": "PartitionedCall/model_43/tf.compat.v1.nn.pool_4/max_pool", "op": "MaxPool", "input": ["PartitionedCall/model_43/tf.compat.v1.nn.pool_3/max_pool"], "attr": {"T": {"type": "DT_FLOAT"}, "ksize": {"list": {"i": ["1", "5", "5", "1"]}}, "explicit_paddings": {"list": {}}, "padding": {"s": "U0FNRQ=="}, "strides": {"list": {"i": ["1", "1", "1", "1"]}}, "data_format": {"s": "TkhXQw=="}}}, {"name": "PartitionedCall/model_43/tf.compat.v1.nn.pool_5/max_pool", "op": "MaxPool", "input": ["PartitionedCall/model_43/tf.compat.v1.nn.pool_4/max_pool"], "attr": {"T": {"type": "DT_FLOAT"}, "data_format": {"s": "TkhXQw=="}, "explicit_paddings": {"list": {}}, "strides": {"list": {"i": ["1", "1", "1", "1"]}}, "padding": {"s": "U0FNRQ=="}, "ksize": {"list": {"i": ["1", "5", "5", "1"]}}}}, {"name": "PartitionedCall/model_43/tf.concat_28/concat", "op": "ConcatV2", "input": ["PartitionedCall/model_43/tf.math.multiply_368/Mul", "PartitionedCall/model_43/tf.compat.v1.nn.pool_3/max_pool", "PartitionedCall/model_43/tf.compat.v1.nn.pool_4/max_pool", "PartitionedCall/model_43/tf.compat.v1.nn.pool_5/max_pool", "PartitionedCall/model_43/tf.concat_28/concat/axis"], "attr": {"N": {"i": "4"}, "T": {"type": "DT_FLOAT"}, "Tidx": {"type": "DT_INT32"}}}, {"name": "PartitionedCall/model_43/tf.math.add_119/Add", "op": "_FusedConv2D", "input": ["PartitionedCall/model_43/tf.concat_28/concat", "28620", "28622"], "device": "/device:CPU:0", "attr": {"explicit_paddings": {"list": {}}, "epsilon": {"f": 0.0}, "use_cudnn_on_gpu": {"b": true}, "num_args": {"i": "1"}, "TArgs": {"list": {"type": ["DT_FLOAT"]}}, "filter_format": {"s": "SFdJTw=="}, "dilations": {"list": {"i": ["1", "1", "1", "1"]}}, "padding": {"s": "U0FNRQ=="}, "leakyrelu_alpha": {"f": 0.2}, "num_host_args": {"i": "0"}, "fused_ops": {"list": {"s": ["Qmlhc0FkZA=="]}}, "strides": {"list": {"i": ["1", "1", "1", "1"]}}, "T": {"type": "DT_FLOAT"}, "data_format": {"s": "TkhXQw=="}}}, {"name": "PartitionedCall/model_43/tf.math.sigmoid_84/Sigmoid", "op": "Sigmoid", "input": ["PartitionedCall/model_43/tf.math.add_119/Add"], "attr": {"T": {"type": "DT_FLOAT"}}}, {"name": "PartitionedCall/model_43/tf.math.multiply_372/Mul", "op": "Mul", "input": ["PartitionedCall/model_43/tf.math.add_119/Add", "PartitionedCall/model_43/tf.math.sigmoid_84/Sigmoid"], "attr": {"T": {"type": "DT_FLOAT"}}}, {"name": "PartitionedCall/model_43/tf.compat.v1.image.resize_nearest_neighbor_2/ResizeNearestNeighbor", "op": "ResizeNearestNeighbor", "input": ["PartitionedCall/model_43/tf.math.multiply_372/Mul", "PartitionedCall/model_43/tf.compat.v1.image.resize_nearest_neighbor_2/ResizeNearestNeighbor/size"], "attr": {"half_pixel_centers": {"b": false}, "T": {"type": "DT_FLOAT"}, "align_corners": {"b": false}}}, {"name": "PartitionedCall/model_43/tf.concat_29/concat", "op": "ConcatV2", "input": ["PartitionedCall/model_43/tf.compat.v1.image.resize_nearest_neighbor_2/ResizeNearestNeighbor", "PartitionedCall/model_43/tf.math.multiply_342/Mul", "PartitionedCall/model_43/tf.concat_29/concat/axis"], "attr": {"N": {"i": "2"}, "T": {"type": "DT_FLOAT"}, "Tidx": {"type": "DT_INT32"}}}, {"name": "PartitionedCall/model_43/tf.math.add_120/Add", "op": "_FusedConv2D", "input": ["PartitionedCall/model_43/tf.concat_29/concat", "28624", "28626"], "device": "/device:CPU:0", "attr": {"fused_ops": {"list": {"s": ["Qmlhc0FkZA=="]}}, "explicit_paddings": {"list": {}}, "num_host_args": {"i": "0"}, "epsilon": {"f": 0.0}, "T": {"type": "DT_FLOAT"}, "filter_format": {"s": "SFdJTw=="}, "use_cudnn_on_gpu": {"b": true}, "TArgs": {"list": {"type": ["DT_FLOAT"]}}, "dilations": {"list": {"i": ["1", "1", "1", "1"]}}, "leakyrelu_alpha": {"f": 0.2}, "padding": {"s": "U0FNRQ=="}, "num_args": {"i": "1"}, "strides": {"list": {"i": ["1", "1", "1", "1"]}}, "data_format": {"s": "TkhXQw=="}}}, {"name": "PartitionedCall/model_43/tf.math.sigmoid_85/Sigmoid", "op": "Sigmoid", "input": ["PartitionedCall/model_43/tf.math.add_120/Add"], "attr": {"T": {"type": "DT_FLOAT"}}}, {"name": "PartitionedCall/model_43/tf.math.multiply_376/Mul", "op": "Mul", "input": ["PartitionedCall/model_43/tf.math.add_120/Add", "PartitionedCall/model_43/tf.math.sigmoid_85/Sigmoid"], "attr": {"T": {"type": "DT_FLOAT"}}}, {"name": "PartitionedCall/model_43/tf.strided_slice_28/StridedSlice", "op": "StridedSlice", "input": ["PartitionedCall/model_43/tf.math.multiply_376/Mul", "28640", "28642", "PartitionedCall/model_43/tf.strided_slice_28/ones_like"], "attr": {"new_axis_mask": {"i": "0"}, "shrink_axis_mask": {"i": "0"}, "T": {"type": "DT_FLOAT"}, "ellipsis_mask": {"i": "0"}, "Index": {"type": "DT_INT64"}, "begin_mask": {"i": "15"}, "end_mask": {"i": "7"}}}, {"name": "PartitionedCall/model_43/tf.strided_slice_29/StridedSlice", "op": "StridedSlice", "input": ["PartitionedCall/model_43/tf.math.multiply_376/Mul", "28628", "28630", "PartitionedCall/model_43/tf.strided_slice_29/ones_like"], "attr": {"end_mask": {"i": "7"}, "T": {"type": "DT_FLOAT"}, "new_axis_mask": {"i": "0"}, "Index": {"type": "DT_INT64"}, "begin_mask": {"i": "7"}, "shrink_axis_mask": {"i": "0"}, "ellipsis_mask": {"i": "0"}}}, {"name": "PartitionedCall/model_43/tf.math.add_121/Add", "op": "_FusedConv2D", "input": ["PartitionedCall/model_43/tf.strided_slice_29/StridedSlice", "28632", "28634"], "device": "/device:CPU:0", "attr": {"num_host_args": {"i": "0"}, "epsilon": {"f": 0.0}, "num_args": {"i": "1"}, "strides": {"list": {"i": ["1", "1", "1", "1"]}}, "leakyrelu_alpha": {"f": 0.2}, "TArgs": {"list": {"type": ["DT_FLOAT"]}}, "data_format": {"s": "TkhXQw=="}, "dilations": {"list": {"i": ["1", "1", "1", "1"]}}, "padding": {"s": "U0FNRQ=="}, "filter_format": {"s": "SFdJTw=="}, "fused_ops": {"list": {"s": ["Qmlhc0FkZA=="]}}, "explicit_paddings": {"list": {}}, "T": {"type": "DT_FLOAT"}, "use_cudnn_on_gpu": {"b": true}}}, {"name": "PartitionedCall/model_43/tf.math.sigmoid_86/Sigmoid", "op": "Sigmoid", "input": ["PartitionedCall/model_43/tf.math.add_121/Add"], "attr": {"T": {"type": "DT_FLOAT"}}}, {"name": "PartitionedCall/model_43/tf.math.multiply_380/Mul", "op": "Mul", "input": ["PartitionedCall/model_43/tf.math.add_121/Add", "PartitionedCall/model_43/tf.math.sigmoid_86/Sigmoid"], "attr": {"T": {"type": "DT_FLOAT"}}}, {"name": "PartitionedCall/model_43/tf.math.add_122/Add", "op": "_FusedConv2D", "input": ["PartitionedCall/model_43/tf.math.multiply_380/Mul", "28636", "28638"], "device": "/device:CPU:0", "attr": {"filter_format": {"s": "SFdJTw=="}, "explicit_paddings": {"list": {}}, "T": {"type": "DT_FLOAT"}, "fused_ops": {"list": {"s": ["Qmlhc0FkZA=="]}}, "leakyrelu_alpha": {"f": 0.2}, "TArgs": {"list": {"type": ["DT_FLOAT"]}}, "padding": {"s": "U0FNRQ=="}, "data_format": {"s": "TkhXQw=="}, "strides": {"list": {"i": ["1", "1", "1", "1"]}}, "use_cudnn_on_gpu": {"b": true}, "epsilon": {"f": 0.0}, "num_args": {"i": "1"}, "num_host_args": {"i": "0"}, "dilations": {"list": {"i": ["1", "1", "1", "1"]}}}}, {"name": "PartitionedCall/model_43/tf.math.sigmoid_87/Sigmoid", "op": "Sigmoid", "input": ["PartitionedCall/model_43/tf.math.add_122/Add"], "attr": {"T": {"type": "DT_FLOAT"}}}, {"name": "PartitionedCall/model_43/tf.math.multiply_384/Mul", "op": "Mul", "input": ["PartitionedCall/model_43/tf.math.add_122/Add", "PartitionedCall/model_43/tf.math.sigmoid_87/Sigmoid"], "attr": {"T": {"type": "DT_FLOAT"}}}, {"name": "PartitionedCall/model_43/tf.concat_30/concat", "op": "ConcatV2", "input": ["PartitionedCall/model_43/tf.strided_slice_28/StridedSlice", "PartitionedCall/model_43/tf.strided_slice_29/StridedSlice", "PartitionedCall/model_43/tf.math.multiply_384/Mul", "PartitionedCall/model_43/tf.concat_30/concat/axis"], "attr": {"T": {"type": "DT_FLOAT"}, "N": {"i": "3"}, "Tidx": {"type": "DT_INT32"}}}, {"name": "PartitionedCall/model_43/tf.math.add_123/Add", "op": "_FusedConv2D", "input": ["PartitionedCall/model_43/tf.concat_30/concat", "28644", "28646"], "device": "/device:CPU:0", "attr": {"num_host_args": {"i": "0"}, "dilations": {"list": {"i": ["1", "1", "1", "1"]}}, "use_cudnn_on_gpu": {"b": true}, "TArgs": {"list": {"type": ["DT_FLOAT"]}}, "padding": {"s": "U0FNRQ=="}, "T": {"type": "DT_FLOAT"}, "strides": {"list": {"i": ["1", "1", "1", "1"]}}, "epsilon": {"f": 0.0}, "filter_format": {"s": "SFdJTw=="}, "leakyrelu_alpha": {"f": 0.2}, "data_format": {"s": "TkhXQw=="}, "num_args": {"i": "1"}, "fused_ops": {"list": {"s": ["Qmlhc0FkZA=="]}}, "explicit_paddings": {"list": {}}}}, {"name": "PartitionedCall/model_43/tf.math.sigmoid_88/Sigmoid", "op": "Sigmoid", "input": ["PartitionedCall/model_43/tf.math.add_123/Add"], "attr": {"T": {"type": "DT_FLOAT"}}}, {"name": "PartitionedCall/model_43/tf.math.multiply_388/Mul", "op": "Mul", "input": ["PartitionedCall/model_43/tf.math.add_123/Add", "PartitionedCall/model_43/tf.math.sigmoid_88/Sigmoid"], "attr": {"T": {"type": "DT_FLOAT"}}}, {"name": "PartitionedCall/model_43/tf.compat.v1.image.resize_nearest_neighbor_3/ResizeNearestNeighbor", "op": "ResizeNearestNeighbor", "input": ["PartitionedCall/model_43/tf.math.multiply_388/Mul", "PartitionedCall/model_43/tf.compat.v1.image.resize_nearest_neighbor_3/ResizeNearestNeighbor/size"], "attr": {"align_corners": {"b": false}, "T": {"type": "DT_FLOAT"}, "half_pixel_centers": {"b": false}}}, {"name": "PartitionedCall/model_43/tf.concat_31/concat", "op": "ConcatV2", "input": ["PartitionedCall/model_43/tf.compat.v1.image.resize_nearest_neighbor_3/ResizeNearestNeighbor", "PartitionedCall/model_43/tf.math.multiply_310/Mul", "PartitionedCall/model_43/tf.concat_31/concat/axis"], "attr": {"N": {"i": "2"}, "T": {"type": "DT_FLOAT"}, "Tidx": {"type": "DT_INT32"}}}, {"name": "PartitionedCall/model_43/tf.math.add_124/Add", "op": "_FusedConv2D", "input": ["PartitionedCall/model_43/tf.concat_31/concat", "28648", "28650"], "device": "/device:CPU:0", "attr": {"padding": {"s": "U0FNRQ=="}, "data_format": {"s": "TkhXQw=="}, "strides": {"list": {"i": ["1", "1", "1", "1"]}}, "leakyrelu_alpha": {"f": 0.2}, "explicit_paddings": {"list": {}}, "dilations": {"list": {"i": ["1", "1", "1", "1"]}}, "filter_format": {"s": "SFdJTw=="}, "T": {"type": "DT_FLOAT"}, "TArgs": {"list": {"type": ["DT_FLOAT"]}}, "num_args": {"i": "1"}, "fused_ops": {"list": {"s": ["Qmlhc0FkZA=="]}}, "epsilon": {"f": 0.0}, "use_cudnn_on_gpu": {"b": true}, "num_host_args": {"i": "0"}}}, {"name": "PartitionedCall/model_43/tf.math.sigmoid_89/Sigmoid", "op": "Sigmoid", "input": ["PartitionedCall/model_43/tf.math.add_124/Add"], "attr": {"T": {"type": "DT_FLOAT"}}}, {"name": "PartitionedCall/model_43/tf.math.multiply_392/Mul", "op": "Mul", "input": ["PartitionedCall/model_43/tf.math.add_124/Add", "PartitionedCall/model_43/tf.math.sigmoid_89/Sigmoid"], "attr": {"T": {"type": "DT_FLOAT"}}}, {"name": "PartitionedCall/model_43/tf.strided_slice_30/StridedSlice", "op": "StridedSlice", "input": ["PartitionedCall/model_43/tf.math.multiply_392/Mul", "28664", "28666", "PartitionedCall/model_43/tf.strided_slice_30/ones_like"], "attr": {"shrink_axis_mask": {"i": "0"}, "end_mask": {"i": "7"}, "begin_mask": {"i": "15"}, "Index": {"type": "DT_INT64"}, "new_axis_mask": {"i": "0"}, "ellipsis_mask": {"i": "0"}, "T": {"type": "DT_FLOAT"}}}, {"name": "PartitionedCall/model_43/tf.strided_slice_31/StridedSlice", "op": "StridedSlice", "input": ["PartitionedCall/model_43/tf.math.multiply_392/Mul", "28652", "28654", "PartitionedCall/model_43/tf.strided_slice_31/ones_like"], "attr": {"shrink_axis_mask": {"i": "0"}, "T": {"type": "DT_FLOAT"}, "new_axis_mask": {"i": "0"}, "ellipsis_mask": {"i": "0"}, "begin_mask": {"i": "7"}, "Index": {"type": "DT_INT64"}, "end_mask": {"i": "7"}}}, {"name": "PartitionedCall/model_43/tf.math.add_125/Add", "op": "_FusedConv2D", "input": ["PartitionedCall/model_43/tf.strided_slice_31/StridedSlice", "28656", "28658"], "device": "/device:CPU:0", "attr": {"data_format": {"s": "TkhXQw=="}, "dilations": {"list": {"i": ["1", "1", "1", "1"]}}, "fused_ops": {"list": {"s": ["Qmlhc0FkZA=="]}}, "filter_format": {"s": "SFdJTw=="}, "num_args": {"i": "1"}, "padding": {"s": "U0FNRQ=="}, "epsilon": {"f": 0.0}, "TArgs": {"list": {"type": ["DT_FLOAT"]}}, "leakyrelu_alpha": {"f": 0.2}, "num_host_args": {"i": "0"}, "strides": {"list": {"i": ["1", "1", "1", "1"]}}, "T": {"type": "DT_FLOAT"}, "use_cudnn_on_gpu": {"b": true}, "explicit_paddings": {"list": {}}}}, {"name": "PartitionedCall/model_43/tf.math.sigmoid_90/Sigmoid", "op": "Sigmoid", "input": ["PartitionedCall/model_43/tf.math.add_125/Add"], "attr": {"T": {"type": "DT_FLOAT"}}}, {"name": "PartitionedCall/model_43/tf.math.multiply_396/Mul", "op": "Mul", "input": ["PartitionedCall/model_43/tf.math.add_125/Add", "PartitionedCall/model_43/tf.math.sigmoid_90/Sigmoid"], "attr": {"T": {"type": "DT_FLOAT"}}}, {"name": "PartitionedCall/model_43/tf.math.add_126/Add", "op": "_FusedConv2D", "input": ["PartitionedCall/model_43/tf.math.multiply_396/Mul", "28660", "28662"], "device": "/device:CPU:0", "attr": {"epsilon": {"f": 0.0}, "leakyrelu_alpha": {"f": 0.2}, "num_args": {"i": "1"}, "fused_ops": {"list": {"s": ["Qmlhc0FkZA=="]}}, "padding": {"s": "U0FNRQ=="}, "data_format": {"s": "TkhXQw=="}, "use_cudnn_on_gpu": {"b": true}, "strides": {"list": {"i": ["1", "1", "1", "1"]}}, "T": {"type": "DT_FLOAT"}, "TArgs": {"list": {"type": ["DT_FLOAT"]}}, "explicit_paddings": {"list": {}}, "dilations": {"list": {"i": ["1", "1", "1", "1"]}}, "filter_format": {"s": "SFdJTw=="}, "num_host_args": {"i": "0"}}}, {"name": "PartitionedCall/model_43/tf.math.sigmoid_91/Sigmoid", "op": "Sigmoid", "input": ["PartitionedCall/model_43/tf.math.add_126/Add"], "attr": {"T": {"type": "DT_FLOAT"}}}, {"name": "PartitionedCall/model_43/tf.math.multiply_400/Mul", "op": "Mul", "input": ["PartitionedCall/model_43/tf.math.add_126/Add", "PartitionedCall/model_43/tf.math.sigmoid_91/Sigmoid"], "attr": {"T": {"type": "DT_FLOAT"}}}, {"name": "PartitionedCall/model_43/tf.concat_32/concat", "op": "ConcatV2", "input": ["PartitionedCall/model_43/tf.strided_slice_30/StridedSlice", "PartitionedCall/model_43/tf.strided_slice_31/StridedSlice", "PartitionedCall/model_43/tf.math.multiply_400/Mul", "PartitionedCall/model_43/tf.concat_32/concat/axis"], "attr": {"T": {"type": "DT_FLOAT"}, "Tidx": {"type": "DT_INT32"}, "N": {"i": "3"}}}, {"name": "PartitionedCall/model_43/tf.math.add_127/Add", "op": "_FusedConv2D", "input": ["PartitionedCall/model_43/tf.concat_32/concat", "28668", "28670"], "device": "/device:CPU:0", "attr": {"T": {"type": "DT_FLOAT"}, "data_format": {"s": "TkhXQw=="}, "epsilon": {"f": 0.0}, "TArgs": {"list": {"type": ["DT_FLOAT"]}}, "fused_ops": {"list": {"s": ["Qmlhc0FkZA=="]}}, "explicit_paddings": {"list": {}}, "use_cudnn_on_gpu": {"b": true}, "leakyrelu_alpha": {"f": 0.2}, "num_host_args": {"i": "0"}, "num_args": {"i": "1"}, "filter_format": {"s": "SFdJTw=="}, "dilations": {"list": {"i": ["1", "1", "1", "1"]}}, "padding": {"s": "U0FNRQ=="}, "strides": {"list": {"i": ["1", "1", "1", "1"]}}}}, {"name": "PartitionedCall/model_43/tf.math.sigmoid_92/Sigmoid", "op": "Sigmoid", "input": ["PartitionedCall/model_43/tf.math.add_127/Add"], "attr": {"T": {"type": "DT_FLOAT"}}}, {"name": "PartitionedCall/model_43/tf.math.multiply_404/Mul", "op": "Mul", "input": ["PartitionedCall/model_43/tf.math.add_127/Add", "PartitionedCall/model_43/tf.math.sigmoid_92/Sigmoid"], "attr": {"T": {"type": "DT_FLOAT"}}}, {"name": "PartitionedCall/model_43/tf.math.add_129/Add", "op": "_FusedConv2D", "input": ["PartitionedCall/model_43/tf.math.multiply_404/Mul", "28744", "28754"], "device": "/device:CPU:0", "attr": {"explicit_paddings": {"list": {}}, "fused_ops": {"list": {"s": ["Qmlhc0FkZA=="]}}, "TArgs": {"list": {"type": ["DT_FLOAT"]}}, "leakyrelu_alpha": {"f": 0.2}, "num_host_args": {"i": "0"}, "strides": {"list": {"i": ["1", "1", "1", "1"]}}, "num_args": {"i": "1"}, "padding": {"s": "U0FNRQ=="}, "T": {"type": "DT_FLOAT"}, "data_format": {"s": "TkhXQw=="}, "dilations": {"list": {"i": ["1", "1", "1", "1"]}}, "filter_format": {"s": "SFdJTw=="}, "use_cudnn_on_gpu": {"b": true}, "epsilon": {"f": 0.0}}}, {"name": "PartitionedCall/model_43/tf.math.add_130/Add", "op": "_FusedConv2D", "input": ["PartitionedCall/model_43/tf.math.multiply_404/Mul", "28730", "28734"], "device": "/device:CPU:0", "attr": {"filter_format": {"s": "SFdJTw=="}, "num_args": {"i": "1"}, "num_host_args": {"i": "0"}, "padding": {"s": "U0FNRQ=="}, "fused_ops": {"list": {"s": ["Qmlhc0FkZA=="]}}, "data_format": {"s": "TkhXQw=="}, "strides": {"list": {"i": ["1", "1", "1", "1"]}}, "dilations": {"list": {"i": ["1", "1", "1", "1"]}}, "T": {"type": "DT_FLOAT"}, "explicit_paddings": {"list": {}}, "epsilon": {"f": 0.0}, "use_cudnn_on_gpu": {"b": true}, "TArgs": {"list": {"type": ["DT_FLOAT"]}}, "leakyrelu_alpha": {"f": 0.2}}}, {"name": "PartitionedCall/model_43/tf.compat.v1.pad_12/Pad", "op": "Pad", "input": ["PartitionedCall/model_43/tf.math.multiply_404/Mul", "28672"], "attr": {"Tpaddings": {"type": "DT_INT32"}, "T": {"type": "DT_FLOAT"}}}, {"name": "PartitionedCall/model_43/tf.math.sigmoid_94/Sigmoid", "op": "Sigmoid", "input": ["PartitionedCall/model_43/tf.math.add_129/Add"], "attr": {"T": {"type": "DT_FLOAT"}}}, {"name": "PartitionedCall/model_43/tf.math.sigmoid_95/Sigmoid", "op": "Sigmoid", "input": ["PartitionedCall/model_43/tf.math.add_130/Add"], "attr": {"T": {"type": "DT_FLOAT"}}}, {"name": "PartitionedCall/model_43/tf.math.add_128/Add", "op": "_FusedConv2D", "input": ["PartitionedCall/model_43/tf.compat.v1.pad_12/Pad", "28674", "28676"], "device": "/device:CPU:0", "attr": {"fused_ops": {"list": {"s": ["Qmlhc0FkZA=="]}}, "leakyrelu_alpha": {"f": 0.2}, "num_host_args": {"i": "0"}, "dilations": {"list": {"i": ["1", "1", "1", "1"]}}, "epsilon": {"f": 0.0}, "num_args": {"i": "1"}, "strides": {"list": {"i": ["1", "2", "2", "1"]}}, "use_cudnn_on_gpu": {"b": true}, "data_format": {"s": "TkhXQw=="}, "padding": {"s": "VkFMSUQ="}, "filter_format": {"s": "SFdJTw=="}, "explicit_paddings": {"list": {}}, "TArgs": {"list": {"type": ["DT_FLOAT"]}}, "T": {"type": "DT_FLOAT"}}}, {"name": "PartitionedCall/model_43/tf.math.multiply_412/Mul", "op": "Mul", "input": ["PartitionedCall/model_43/tf.math.add_129/Add", "PartitionedCall/model_43/tf.math.sigmoid_94/Sigmoid"], "attr": {"T": {"type": "DT_FLOAT"}}}, {"name": "PartitionedCall/model_43/tf.math.multiply_416/Mul", "op": "Mul", "input": ["PartitionedCall/model_43/tf.math.add_130/Add", "PartitionedCall/model_43/tf.math.sigmoid_95/Sigmoid"], "attr": {"T": {"type": "DT_FLOAT"}}}, {"name": "PartitionedCall/model_43/tf.math.sigmoid_93/Sigmoid", "op": "Sigmoid", "input": ["PartitionedCall/model_43/tf.math.add_128/Add"], "attr": {"T": {"type": "DT_FLOAT"}}}, {"name": "PartitionedCall/model_43/tf.math.add_131/Add", "op": "_FusedConv2D", "input": ["PartitionedCall/model_43/tf.math.multiply_412/Mul", "28768", "28778"], "device": "/device:CPU:0", "attr": {"TArgs": {"list": {"type": ["DT_FLOAT"]}}, "filter_format": {"s": "SFdJTw=="}, "leakyrelu_alpha": {"f": 0.2}, "num_args": {"i": "1"}, "data_format": {"s": "TkhXQw=="}, "num_host_args": {"i": "0"}, "epsilon": {"f": 0.0}, "strides": {"list": {"i": ["1", "1", "1", "1"]}}, "use_cudnn_on_gpu": {"b": true}, "dilations": {"list": {"i": ["1", "1", "1", "1"]}}, "fused_ops": {"list": {"s": ["Qmlhc0FkZA=="]}}, "T": {"type": "DT_FLOAT"}, "padding": {"s": "U0FNRQ=="}, "explicit_paddings": {"list": {}}}}, {"name": "PartitionedCall/model_43/tf.math.add_134/Add", "op": "_FusedConv2D", "input": ["PartitionedCall/model_43/tf.math.multiply_416/Mul", "28756", "28758"], "device": "/device:CPU:0", "attr": {"explicit_paddings": {"list": {}}, "TArgs": {"list": {"type": ["DT_FLOAT"]}}, "fused_ops": {"list": {"s": ["Qmlhc0FkZA=="]}}, "strides": {"list": {"i": ["1", "1", "1", "1"]}}, "num_host_args": {"i": "0"}, "use_cudnn_on_gpu": {"b": true}, "num_args": {"i": "1"}, "leakyrelu_alpha": {"f": 0.2}, "T": {"type": "DT_FLOAT"}, "data_format": {"s": "TkhXQw=="}, "epsilon": {"f": 0.0}, "padding": {"s": "U0FNRQ=="}, "dilations": {"list": {"i": ["1", "1", "1", "1"]}}, "filter_format": {"s": "SFdJTw=="}}}, {"name": "PartitionedCall/model_43/tf.math.multiply_408/Mul", "op": "Mul", "input": ["PartitionedCall/model_43/tf.math.add_128/Add", "PartitionedCall/model_43/tf.math.sigmoid_93/Sigmoid"], "attr": {"T": {"type": "DT_FLOAT"}}}, {"name": "PartitionedCall/model_43/tf.math.sigmoid_96/Sigmoid", "op": "Sigmoid", "input": ["PartitionedCall/model_43/tf.math.add_131/Add"], "attr": {"T": {"type": "DT_FLOAT"}}}, {"name": "PartitionedCall/model_43/tf.math.sigmoid_97/Sigmoid", "op": "Sigmoid", "input": ["PartitionedCall/model_43/tf.math.add_134/Add"], "attr": {"T": {"type": "DT_FLOAT"}}}, {"name": "PartitionedCall/model_43/tf.concat_33/concat", "op": "ConcatV2", "input": ["PartitionedCall/model_43/tf.math.multiply_408/Mul", "PartitionedCall/model_43/tf.math.multiply_388/Mul", "PartitionedCall/model_43/tf.concat_33/concat/axis"], "attr": {"T": {"type": "DT_FLOAT"}, "N": {"i": "2"}, "Tidx": {"type": "DT_INT32"}}}, {"name": "PartitionedCall/model_43/tf.math.multiply_420/Mul", "op": "Mul", "input": ["PartitionedCall/model_43/tf.math.add_131/Add", "PartitionedCall/model_43/tf.math.sigmoid_96/Sigmoid"], "attr": {"T": {"type": "DT_FLOAT"}}}, {"name": "PartitionedCall/model_43/tf.math.multiply_424/Mul", "op": "Mul", "input": ["PartitionedCall/model_43/tf.math.add_134/Add", "PartitionedCall/model_43/tf.math.sigmoid_97/Sigmoid"], "attr": {"T": {"type": "DT_FLOAT"}}}, {"name": "PartitionedCall/model_43/tf.math.add_135/Add", "op": "_FusedConv2D", "input": ["PartitionedCall/model_43/tf.concat_33/concat", "28678", "28680"], "device": "/device:CPU:0", "attr": {"T": {"type": "DT_FLOAT"}, "num_host_args": {"i": "0"}, "leakyrelu_alpha": {"f": 0.2}, "strides": {"list": {"i": ["1", "1", "1", "1"]}}, "dilations": {"list": {"i": ["1", "1", "1", "1"]}}, "filter_format": {"s": "SFdJTw=="}, "explicit_paddings": {"list": {}}, "data_format": {"s": "TkhXQw=="}, "TArgs": {"list": {"type": ["DT_FLOAT"]}}, "fused_ops": {"list": {"s": ["Qmlhc0FkZA=="]}}, "padding": {"s": "U0FNRQ=="}, "num_args": {"i": "1"}, "epsilon": {"f": 0.0}, "use_cudnn_on_gpu": {"b": true}}}, {"name": "PartitionedCall/model_43/tf.math.add_136/Add", "op": "_FusedConv2D", "input": ["PartitionedCall/model_43/tf.math.multiply_420/Mul", "28790", "28800"], "device": "/device:CPU:0", "attr": {"num_host_args": {"i": "0"}, "TArgs": {"list": {"type": ["DT_FLOAT"]}}, "num_args": {"i": "1"}, "leakyrelu_alpha": {"f": 0.2}, "T": {"type": "DT_FLOAT"}, "dilations": {"list": {"i": ["1", "1", "1", "1"]}}, "filter_format": {"s": "SFdJTw=="}, "padding": {"s": "U0FNRQ=="}, "explicit_paddings": {"list": {}}, "data_format": {"s": "TkhXQw=="}, "strides": {"list": {"i": ["1", "1", "1", "1"]}}, "fused_ops": {"list": {"s": ["Qmlhc0FkZA=="]}}, "epsilon": {"f": 0.0}, "use_cudnn_on_gpu": {"b": true}}}, {"name": "PartitionedCall/model_43/tf.math.add_139/Add", "op": "_FusedConv2D", "input": ["PartitionedCall/model_43/tf.math.multiply_424/Mul", "28788", "28802"], "device": "/device:CPU:0", "attr": {"filter_format": {"s": "SFdJTw=="}, "dilations": {"list": {"i": ["1", "1", "1", "1"]}}, "TArgs": {"list": {"type": ["DT_FLOAT"]}}, "T": {"type": "DT_FLOAT"}, "epsilon": {"f": 0.0}, "use_cudnn_on_gpu": {"b": true}, "padding": {"s": "U0FNRQ=="}, "explicit_paddings": {"list": {}}, "leakyrelu_alpha": {"f": 0.2}, "data_format": {"s": "TkhXQw=="}, "fused_ops": {"list": {"s": ["Qmlhc0FkZA=="]}}, "num_args": {"i": "1"}, "num_host_args": {"i": "0"}, "strides": {"list": {"i": ["1", "1", "1", "1"]}}}}, {"name": "PartitionedCall/model_43/tf.math.sigmoid_98/Sigmoid", "op": "Sigmoid", "input": ["PartitionedCall/model_43/tf.math.add_135/Add"], "attr": {"T": {"type": "DT_FLOAT"}}}, {"name": "PartitionedCall/model_43/tf.concat_36/concat", "op": "ConcatV2", "input": ["PartitionedCall/model_43/tf.math.add_136/Add", "PartitionedCall/model_43/tf.math.add_139/Add", "PartitionedCall/model_43/tf.concat_36/concat/axis"], "attr": {"T": {"type": "DT_FLOAT"}, "N": {"i": "2"}, "Tidx": {"type": "DT_INT32"}}}, {"name": "PartitionedCall/model_43/tf.math.multiply_428/Mul", "op": "Mul", "input": ["PartitionedCall/model_43/tf.math.add_135/Add", "PartitionedCall/model_43/tf.math.sigmoid_98/Sigmoid"], "attr": {"T": {"type": "DT_FLOAT"}}}, {"name": "PartitionedCall/model_43/tf.compat.v1.transpose_42/transpose", "op": "Transpose", "input": ["PartitionedCall/model_43/tf.concat_36/concat", "PartitionedCall/model_43/tf.compat.v1.transpose_42/transpose/perm"], "attr": {"Tperm": {"type": "DT_INT32"}, "T": {"type": "DT_FLOAT"}}}, {"name": "PartitionedCall/model_43/tf.strided_slice_32/StridedSlice", "op": "StridedSlice", "input": ["PartitionedCall/model_43/tf.math.multiply_428/Mul", "28694", "28696", "PartitionedCall/model_43/tf.strided_slice_32/ones_like"], "attr": {"T": {"type": "DT_FLOAT"}, "shrink_axis_mask": {"i": "0"}, "Index": {"type": "DT_INT64"}, "ellipsis_mask": {"i": "0"}, "end_mask": {"i": "7"}, "begin_mask": {"i": "15"}, "new_axis_mask": {"i": "0"}}}, {"name": "PartitionedCall/model_43/tf.strided_slice_33/StridedSlice", "op": "StridedSlice", "input": ["PartitionedCall/model_43/tf.math.multiply_428/Mul", "28682", "28684", "PartitionedCall/model_43/tf.strided_slice_33/ones_like"], "attr": {"new_axis_mask": {"i": "0"}, "Index": {"type": "DT_INT64"}, "begin_mask": {"i": "7"}, "end_mask": {"i": "7"}, "T": {"type": "DT_FLOAT"}, "shrink_axis_mask": {"i": "0"}, "ellipsis_mask": {"i": "0"}}}, {"name": "PartitionedCall/model_43/tf.reshape_17/Reshape", "op": "Reshape", "input": ["PartitionedCall/model_43/tf.compat.v1.transpose_42/transpose", "PartitionedCall/model_43/tf.reshape_17/Reshape/shape"], "attr": {"T": {"type": "DT_FLOAT"}, "Tshape": {"type": "DT_INT32"}}}, {"name": "PartitionedCall/model_43/tf.math.add_140/Add", "op": "_FusedConv2D", "input": ["PartitionedCall/model_43/tf.strided_slice_33/StridedSlice", "28686", "28688"], "device": "/device:CPU:0", "attr": {"epsilon": {"f": 0.0}, "leakyrelu_alpha": {"f": 0.2}, "num_args": {"i": "1"}, "TArgs": {"list": {"type": ["DT_FLOAT"]}}, "padding": {"s": "U0FNRQ=="}, "fused_ops": {"list": {"s": ["Qmlhc0FkZA=="]}}, "dilations": {"list": {"i": ["1", "1", "1", "1"]}}, "num_host_args": {"i": "0"}, "data_format": {"s": "TkhXQw=="}, "strides": {"list": {"i": ["1", "1", "1", "1"]}}, "use_cudnn_on_gpu": {"b": true}, "explicit_paddings": {"list": {}}, "filter_format": {"s": "SFdJTw=="}, "T": {"type": "DT_FLOAT"}}}, {"name": "PartitionedCall/model_43/tf.math.sigmoid_99/Sigmoid", "op": "Sigmoid", "input": ["PartitionedCall/model_43/tf.math.add_140/Add"], "attr": {"T": {"type": "DT_FLOAT"}}}, {"name": "PartitionedCall/model_43/tf.math.multiply_432/Mul", "op": "Mul", "input": ["PartitionedCall/model_43/tf.math.add_140/Add", "PartitionedCall/model_43/tf.math.sigmoid_99/Sigmoid"], "attr": {"T": {"type": "DT_FLOAT"}}}, {"name": "PartitionedCall/model_43/tf.math.add_141/Add", "op": "_FusedConv2D", "input": ["PartitionedCall/model_43/tf.math.multiply_432/Mul", "28690", "28692"], "device": "/device:CPU:0", "attr": {"padding": {"s": "U0FNRQ=="}, "T": {"type": "DT_FLOAT"}, "strides": {"list": {"i": ["1", "1", "1", "1"]}}, "explicit_paddings": {"list": {}}, "num_host_args": {"i": "0"}, "filter_format": {"s": "SFdJTw=="}, "leakyrelu_alpha": {"f": 0.2}, "num_args": {"i": "1"}, "dilations": {"list": {"i": ["1", "1", "1", "1"]}}, "epsilon": {"f": 0.0}, "use_cudnn_on_gpu": {"b": true}, "data_format": {"s": "TkhXQw=="}, "TArgs": {"list": {"type": ["DT_FLOAT"]}}, "fused_ops": {"list": {"s": ["Qmlhc0FkZA=="]}}}}, {"name": "PartitionedCall/model_43/tf.math.sigmoid_100/Sigmoid", "op": "Sigmoid", "input": ["PartitionedCall/model_43/tf.math.add_141/Add"], "attr": {"T": {"type": "DT_FLOAT"}}}, {"name": "PartitionedCall/model_43/tf.math.multiply_436/Mul", "op": "Mul", "input": ["PartitionedCall/model_43/tf.math.add_141/Add", "PartitionedCall/model_43/tf.math.sigmoid_100/Sigmoid"], "attr": {"T": {"type": "DT_FLOAT"}}}, {"name": "PartitionedCall/model_43/tf.concat_37/concat", "op": "ConcatV2", "input": ["PartitionedCall/model_43/tf.strided_slice_32/StridedSlice", "PartitionedCall/model_43/tf.strided_slice_33/StridedSlice", "PartitionedCall/model_43/tf.math.multiply_436/Mul", "PartitionedCall/model_43/tf.concat_37/concat/axis"], "attr": {"T": {"type": "DT_FLOAT"}, "N": {"i": "3"}, "Tidx": {"type": "DT_INT32"}}}, {"name": "PartitionedCall/model_43/tf.math.add_142/Add", "op": "_FusedConv2D", "input": ["PartitionedCall/model_43/tf.concat_37/concat", "28698", "28700"], "device": "/device:CPU:0", "attr": {"use_cudnn_on_gpu": {"b": true}, "explicit_paddings": {"list": {}}, "leakyrelu_alpha": {"f": 0.2}, "dilations": {"list": {"i": ["1", "1", "1", "1"]}}, "fused_ops": {"list": {"s": ["Qmlhc0FkZA=="]}}, "num_args": {"i": "1"}, "strides": {"list": {"i": ["1", "1", "1", "1"]}}, "epsilon": {"f": 0.0}, "T": {"type": "DT_FLOAT"}, "padding": {"s": "U0FNRQ=="}, "data_format": {"s": "TkhXQw=="}, "TArgs": {"list": {"type": ["DT_FLOAT"]}}, "num_host_args": {"i": "0"}, "filter_format": {"s": "SFdJTw=="}}}, {"name": "PartitionedCall/model_43/tf.math.sigmoid_101/Sigmoid", "op": "Sigmoid", "input": ["PartitionedCall/model_43/tf.math.add_142/Add"], "attr": {"T": {"type": "DT_FLOAT"}}}, {"name": "PartitionedCall/model_43/tf.math.multiply_440/Mul", "op": "Mul", "input": ["PartitionedCall/model_43/tf.math.add_142/Add", "PartitionedCall/model_43/tf.math.sigmoid_101/Sigmoid"], "attr": {"T": {"type": "DT_FLOAT"}}}, {"name": "PartitionedCall/model_43/tf.math.add_144/Add", "op": "_FusedConv2D", "input": ["PartitionedCall/model_43/tf.math.multiply_440/Mul", "28742", "28752"], "device": "/device:CPU:0", "attr": {"leakyrelu_alpha": {"f": 0.2}, "strides": {"list": {"i": ["1", "1", "1", "1"]}}, "fused_ops": {"list": {"s": ["Qmlhc0FkZA=="]}}, "filter_format": {"s": "SFdJTw=="}, "data_format": {"s": "TkhXQw=="}, "num_args": {"i": "1"}, "TArgs": {"list": {"type": ["DT_FLOAT"]}}, "num_host_args": {"i": "0"}, "dilations": {"list": {"i": ["1", "1", "1", "1"]}}, "padding": {"s": "U0FNRQ=="}, "explicit_paddings": {"list": {}}, "T": {"type": "DT_FLOAT"}, "use_cudnn_on_gpu": {"b": true}, "epsilon": {"f": 0.0}}}, {"name": "PartitionedCall/model_43/tf.math.add_145/Add", "op": "_FusedConv2D", "input": ["PartitionedCall/model_43/tf.math.multiply_440/Mul", "28740", "28750"], "device": "/device:CPU:0", "attr": {"fused_ops": {"list": {"s": ["Qmlhc0FkZA=="]}}, "padding": {"s": "U0FNRQ=="}, "num_args": {"i": "1"}, "data_format": {"s": "TkhXQw=="}, "explicit_paddings": {"list": {}}, "use_cudnn_on_gpu": {"b": true}, "num_host_args": {"i": "0"}, "epsilon": {"f": 0.0}, "T": {"type": "DT_FLOAT"}, "leakyrelu_alpha": {"f": 0.2}, "TArgs": {"list": {"type": ["DT_FLOAT"]}}, "strides": {"list": {"i": ["1", "1", "1", "1"]}}, "dilations": {"list": {"i": ["1", "1", "1", "1"]}}, "filter_format": {"s": "SFdJTw=="}}}, {"name": "PartitionedCall/model_43/tf.compat.v1.pad_13/Pad", "op": "Pad", "input": ["PartitionedCall/model_43/tf.math.multiply_440/Mul", "28702"], "attr": {"Tpaddings": {"type": "DT_INT32"}, "T": {"type": "DT_FLOAT"}}}, {"name": "PartitionedCall/model_43/tf.math.sigmoid_103/Sigmoid", "op": "Sigmoid", "input": ["PartitionedCall/model_43/tf.math.add_144/Add"], "attr": {"T": {"type": "DT_FLOAT"}}}, {"name": "PartitionedCall/model_43/tf.math.sigmoid_104/Sigmoid", "op": "Sigmoid", "input": ["PartitionedCall/model_43/tf.math.add_145/Add"], "attr": {"T": {"type": "DT_FLOAT"}}}, {"name": "PartitionedCall/model_43/tf.math.add_143/Add", "op": "_FusedConv2D", "input": ["PartitionedCall/model_43/tf.compat.v1.pad_13/Pad", "28704", "28706"], "device": "/device:CPU:0", "attr": {"T": {"type": "DT_FLOAT"}, "filter_format": {"s": "SFdJTw=="}, "dilations": {"list": {"i": ["1", "1", "1", "1"]}}, "data_format": {"s": "TkhXQw=="}, "leakyrelu_alpha": {"f": 0.2}, "epsilon": {"f": 0.0}, "num_host_args": {"i": "0"}, "fused_ops": {"list": {"s": ["Qmlhc0FkZA=="]}}, "padding": {"s": "VkFMSUQ="}, "num_args": {"i": "1"}, "use_cudnn_on_gpu": {"b": true}, "strides": {"list": {"i": ["1", "2", "2", "1"]}}, "explicit_paddings": {"list": {}}, "TArgs": {"list": {"type": ["DT_FLOAT"]}}}}, {"name": "PartitionedCall/model_43/tf.math.multiply_448/Mul", "op": "Mul", "input": ["PartitionedCall/model_43/tf.math.add_144/Add", "PartitionedCall/model_43/tf.math.sigmoid_103/Sigmoid"], "attr": {"T": {"type": "DT_FLOAT"}}}, {"name": "PartitionedCall/model_43/tf.math.multiply_452/Mul", "op": "Mul", "input": ["PartitionedCall/model_43/tf.math.add_145/Add", "PartitionedCall/model_43/tf.math.sigmoid_104/Sigmoid"], "attr": {"T": {"type": "DT_FLOAT"}}}, {"name": "PartitionedCall/model_43/tf.math.sigmoid_102/Sigmoid", "op": "Sigmoid", "input": ["PartitionedCall/model_43/tf.math.add_143/Add"], "attr": {"T": {"type": "DT_FLOAT"}}}, {"name": "PartitionedCall/model_43/tf.math.add_146/Add", "op": "_FusedConv2D", "input": ["PartitionedCall/model_43/tf.math.multiply_448/Mul", "28766", "28776"], "device": "/device:CPU:0", "attr": {"padding": {"s": "U0FNRQ=="}, "T": {"type": "DT_FLOAT"}, "explicit_paddings": {"list": {}}, "filter_format": {"s": "SFdJTw=="}, "num_args": {"i": "1"}, "dilations": {"list": {"i": ["1", "1", "1", "1"]}}, "num_host_args": {"i": "0"}, "data_format": {"s": "TkhXQw=="}, "epsilon": {"f": 0.0}, "use_cudnn_on_gpu": {"b": true}, "strides": {"list": {"i": ["1", "1", "1", "1"]}}, "TArgs": {"list": {"type": ["DT_FLOAT"]}}, "fused_ops": {"list": {"s": ["Qmlhc0FkZA=="]}}, "leakyrelu_alpha": {"f": 0.2}}}, {"name": "PartitionedCall/model_43/tf.math.add_147/Add", "op": "_FusedConv2D", "input": ["PartitionedCall/model_43/tf.math.multiply_452/Mul", "28764", "28774"], "device": "/device:CPU:0", "attr": {"leakyrelu_alpha": {"f": 0.2}, "strides": {"list": {"i": ["1", "1", "1", "1"]}}, "use_cudnn_on_gpu": {"b": true}, "filter_format": {"s": "SFdJTw=="}, "dilations": {"list": {"i": ["1", "1", "1", "1"]}}, "num_args": {"i": "1"}, "explicit_paddings": {"list": {}}, "fused_ops": {"list": {"s": ["Qmlhc0FkZA=="]}}, "T": {"type": "DT_FLOAT"}, "data_format": {"s": "TkhXQw=="}, "padding": {"s": "U0FNRQ=="}, "num_host_args": {"i": "0"}, "TArgs": {"list": {"type": ["DT_FLOAT"]}}, "epsilon": {"f": 0.0}}}, {"name": "PartitionedCall/model_43/tf.math.multiply_444/Mul", "op": "Mul", "input": ["PartitionedCall/model_43/tf.math.add_143/Add", "PartitionedCall/model_43/tf.math.sigmoid_102/Sigmoid"], "attr": {"T": {"type": "DT_FLOAT"}}}, {"name": "PartitionedCall/model_43/tf.math.sigmoid_105/Sigmoid", "op": "Sigmoid", "input": ["PartitionedCall/model_43/tf.math.add_146/Add"], "attr": {"T": {"type": "DT_FLOAT"}}}, {"name": "PartitionedCall/model_43/tf.math.sigmoid_106/Sigmoid", "op": "Sigmoid", "input": ["PartitionedCall/model_43/tf.math.add_147/Add"], "attr": {"T": {"type": "DT_FLOAT"}}}, {"name": "PartitionedCall/model_43/tf.concat_38/concat", "op": "ConcatV2", "input": ["PartitionedCall/model_43/tf.math.multiply_444/Mul", "PartitionedCall/model_43/tf.math.multiply_372/Mul", "PartitionedCall/model_43/tf.concat_38/concat/axis"], "attr": {"N": {"i": "2"}, "Tidx": {"type": "DT_INT32"}, "T": {"type": "DT_FLOAT"}}}, {"name": "PartitionedCall/model_43/tf.math.multiply_456/Mul", "op": "Mul", "input": ["PartitionedCall/model_43/tf.math.add_146/Add", "PartitionedCall/model_43/tf.math.sigmoid_105/Sigmoid"], "attr": {"T": {"type": "DT_FLOAT"}}}, {"name": "PartitionedCall/model_43/tf.math.multiply_460/Mul", "op": "Mul", "input": ["PartitionedCall/model_43/tf.math.add_147/Add", "PartitionedCall/model_43/tf.math.sigmoid_106/Sigmoid"], "attr": {"T": {"type": "DT_FLOAT"}}}, {"name": "PartitionedCall/model_43/tf.math.add_148/Add", "op": "_FusedConv2D", "input": ["PartitionedCall/model_43/tf.concat_38/concat", "28708", "28710"], "device": "/device:CPU:0", "attr": {"padding": {"s": "U0FNRQ=="}, "num_args": {"i": "1"}, "explicit_paddings": {"list": {}}, "use_cudnn_on_gpu": {"b": true}, "leakyrelu_alpha": {"f": 0.2}, "strides": {"list": {"i": ["1", "1", "1", "1"]}}, "T": {"type": "DT_FLOAT"}, "data_format": {"s": "TkhXQw=="}, "dilations": {"list": {"i": ["1", "1", "1", "1"]}}, "fused_ops": {"list": {"s": ["Qmlhc0FkZA=="]}}, "num_host_args": {"i": "0"}, "TArgs": {"list": {"type": ["DT_FLOAT"]}}, "filter_format": {"s": "SFdJTw=="}, "epsilon": {"f": 0.0}}}, {"name": "PartitionedCall/model_43/tf.math.add_149/Add", "op": "_FusedConv2D", "input": ["PartitionedCall/model_43/tf.math.multiply_456/Mul", "28786", "28796"], "device": "/device:CPU:0", "attr": {"filter_format": {"s": "SFdJTw=="}, "padding": {"s": "U0FNRQ=="}, "strides": {"list": {"i": ["1", "1", "1", "1"]}}, "data_format": {"s": "TkhXQw=="}, "fused_ops": {"list": {"s": ["Qmlhc0FkZA=="]}}, "leakyrelu_alpha": {"f": 0.2}, "use_cudnn_on_gpu": {"b": true}, "T": {"type": "DT_FLOAT"}, "num_args": {"i": "1"}, "num_host_args": {"i": "0"}, "explicit_paddings": {"list": {}}, "epsilon": {"f": 0.0}, "dilations": {"list": {"i": ["1", "1", "1", "1"]}}, "TArgs": {"list": {"type": ["DT_FLOAT"]}}}}, {"name": "PartitionedCall/model_43/tf.math.add_150/Add", "op": "_FusedConv2D", "input": ["PartitionedCall/model_43/tf.math.multiply_460/Mul", "28784", "28798"], "device": "/device:CPU:0", "attr": {"num_host_args": {"i": "0"}, "dilations": {"list": {"i": ["1", "1", "1", "1"]}}, "leakyrelu_alpha": {"f": 0.2}, "padding": {"s": "U0FNRQ=="}, "fused_ops": {"list": {"s": ["Qmlhc0FkZA=="]}}, "filter_format": {"s": "SFdJTw=="}, "strides": {"list": {"i": ["1", "1", "1", "1"]}}, "data_format": {"s": "TkhXQw=="}, "TArgs": {"list": {"type": ["DT_FLOAT"]}}, "num_args": {"i": "1"}, "use_cudnn_on_gpu": {"b": true}, "epsilon": {"f": 0.0}, "T": {"type": "DT_FLOAT"}, "explicit_paddings": {"list": {}}}}, {"name": "PartitionedCall/model_43/tf.math.sigmoid_107/Sigmoid", "op": "Sigmoid", "input": ["PartitionedCall/model_43/tf.math.add_148/Add"], "attr": {"T": {"type": "DT_FLOAT"}}}, {"name": "PartitionedCall/model_43/tf.concat_39/concat", "op": "ConcatV2", "input": ["PartitionedCall/model_43/tf.math.add_149/Add", "PartitionedCall/model_43/tf.math.add_150/Add", "PartitionedCall/model_43/tf.concat_39/concat/axis"], "attr": {"N": {"i": "2"}, "T": {"type": "DT_FLOAT"}, "Tidx": {"type": "DT_INT32"}}}, {"name": "PartitionedCall/model_43/tf.math.multiply_464/Mul", "op": "Mul", "input": ["PartitionedCall/model_43/tf.math.add_148/Add", "PartitionedCall/model_43/tf.math.sigmoid_107/Sigmoid"], "attr": {"T": {"type": "DT_FLOAT"}}}, {"name": "PartitionedCall/model_43/tf.compat.v1.transpose_47/transpose", "op": "Transpose", "input": ["PartitionedCall/model_43/tf.concat_39/concat", "PartitionedCall/model_43/tf.compat.v1.transpose_47/transpose/perm"], "attr": {"Tperm": {"type": "DT_INT32"}, "T": {"type": "DT_FLOAT"}}}, {"name": "PartitionedCall/model_43/tf.strided_slice_34/StridedSlice", "op": "StridedSlice", "input": ["PartitionedCall/model_43/tf.math.multiply_464/Mul", "28724", "28726", "PartitionedCall/model_43/tf.strided_slice_34/ones_like"], "attr": {"T": {"type": "DT_FLOAT"}, "Index": {"type": "DT_INT64"}, "ellipsis_mask": {"i": "0"}, "begin_mask": {"i": "15"}, "end_mask": {"i": "7"}, "shrink_axis_mask": {"i": "0"}, "new_axis_mask": {"i": "0"}}}, {"name": "PartitionedCall/model_43/tf.strided_slice_35/StridedSlice", "op": "StridedSlice", "input": ["PartitionedCall/model_43/tf.math.multiply_464/Mul", "28712", "28714", "PartitionedCall/model_43/tf.strided_slice_35/ones_like"], "attr": {"Index": {"type": "DT_INT64"}, "new_axis_mask": {"i": "0"}, "begin_mask": {"i": "7"}, "shrink_axis_mask": {"i": "0"}, "T": {"type": "DT_FLOAT"}, "ellipsis_mask": {"i": "0"}, "end_mask": {"i": "7"}}}, {"name": "PartitionedCall/model_43/tf.reshape_20/Reshape", "op": "Reshape", "input": ["PartitionedCall/model_43/tf.compat.v1.transpose_47/transpose", "PartitionedCall/model_43/tf.reshape_20/Reshape/shape"], "attr": {"Tshape": {"type": "DT_INT32"}, "T": {"type": "DT_FLOAT"}}}, {"name": "PartitionedCall/model_43/tf.math.add_151/Add", "op": "_FusedConv2D", "input": ["PartitionedCall/model_43/tf.strided_slice_35/StridedSlice", "28716", "28718"], "device": "/device:CPU:0", "attr": {"use_cudnn_on_gpu": {"b": true}, "leakyrelu_alpha": {"f": 0.2}, "filter_format": {"s": "SFdJTw=="}, "data_format": {"s": "TkhXQw=="}, "num_args": {"i": "1"}, "num_host_args": {"i": "0"}, "dilations": {"list": {"i": ["1", "1", "1", "1"]}}, "fused_ops": {"list": {"s": ["Qmlhc0FkZA=="]}}, "epsilon": {"f": 0.0}, "TArgs": {"list": {"type": ["DT_FLOAT"]}}, "padding": {"s": "U0FNRQ=="}, "explicit_paddings": {"list": {}}, "strides": {"list": {"i": ["1", "1", "1", "1"]}}, "T": {"type": "DT_FLOAT"}}}, {"name": "PartitionedCall/model_43/tf.math.sigmoid_108/Sigmoid", "op": "Sigmoid", "input": ["PartitionedCall/model_43/tf.math.add_151/Add"], "attr": {"T": {"type": "DT_FLOAT"}}}, {"name": "PartitionedCall/model_43/tf.math.multiply_468/Mul", "op": "Mul", "input": ["PartitionedCall/model_43/tf.math.add_151/Add", "PartitionedCall/model_43/tf.math.sigmoid_108/Sigmoid"], "attr": {"T": {"type": "DT_FLOAT"}}}, {"name": "PartitionedCall/model_43/tf.math.add_152/Add", "op": "_FusedConv2D", "input": ["PartitionedCall/model_43/tf.math.multiply_468/Mul", "28720", "28722"], "device": "/device:CPU:0", "attr": {"TArgs": {"list": {"type": ["DT_FLOAT"]}}, "num_host_args": {"i": "0"}, "leakyrelu_alpha": {"f": 0.2}, "num_args": {"i": "1"}, "epsilon": {"f": 0.0}, "explicit_paddings": {"list": {}}, "data_format": {"s": "TkhXQw=="}, "dilations": {"list": {"i": ["1", "1", "1", "1"]}}, "fused_ops": {"list": {"s": ["Qmlhc0FkZA=="]}}, "use_cudnn_on_gpu": {"b": true}, "filter_format": {"s": "SFdJTw=="}, "padding": {"s": "U0FNRQ=="}, "strides": {"list": {"i": ["1", "1", "1", "1"]}}, "T": {"type": "DT_FLOAT"}}}, {"name": "PartitionedCall/model_43/tf.math.sigmoid_109/Sigmoid", "op": "Sigmoid", "input": ["PartitionedCall/model_43/tf.math.add_152/Add"], "attr": {"T": {"type": "DT_FLOAT"}}}, {"name": "PartitionedCall/model_43/tf.math.multiply_472/Mul", "op": "Mul", "input": ["PartitionedCall/model_43/tf.math.add_152/Add", "PartitionedCall/model_43/tf.math.sigmoid_109/Sigmoid"], "attr": {"T": {"type": "DT_FLOAT"}}}, {"name": "PartitionedCall/model_43/tf.concat_40/concat", "op": "ConcatV2", "input": ["PartitionedCall/model_43/tf.strided_slice_34/StridedSlice", "PartitionedCall/model_43/tf.strided_slice_35/StridedSlice", "PartitionedCall/model_43/tf.math.multiply_472/Mul", "PartitionedCall/model_43/tf.concat_40/concat/axis"], "attr": {"N": {"i": "3"}, "Tidx": {"type": "DT_INT32"}, "T": {"type": "DT_FLOAT"}}}, {"name": "PartitionedCall/model_43/tf.math.add_153/Add", "op": "_FusedConv2D", "input": ["PartitionedCall/model_43/tf.concat_40/concat", "28728", "28732"], "device": "/device:CPU:0", "attr": {"num_args": {"i": "1"}, "leakyrelu_alpha": {"f": 0.2}, "TArgs": {"list": {"type": ["DT_FLOAT"]}}, "padding": {"s": "U0FNRQ=="}, "data_format": {"s": "TkhXQw=="}, "use_cudnn_on_gpu": {"b": true}, "num_host_args": {"i": "0"}, "strides": {"list": {"i": ["1", "1", "1", "1"]}}, "explicit_paddings": {"list": {}}, "dilations": {"list": {"i": ["1", "1", "1", "1"]}}, "T": {"type": "DT_FLOAT"}, "filter_format": {"s": "SFdJTw=="}, "epsilon": {"f": 0.0}, "fused_ops": {"list": {"s": ["Qmlhc0FkZA=="]}}}}, {"name": "PartitionedCall/model_43/tf.math.sigmoid_110/Sigmoid", "op": "Sigmoid", "input": ["PartitionedCall/model_43/tf.math.add_153/Add"], "attr": {"T": {"type": "DT_FLOAT"}}}, {"name": "PartitionedCall/model_43/tf.math.multiply_476/Mul", "op": "Mul", "input": ["PartitionedCall/model_43/tf.math.add_153/Add", "PartitionedCall/model_43/tf.math.sigmoid_110/Sigmoid"], "attr": {"T": {"type": "DT_FLOAT"}}}, {"name": "PartitionedCall/model_43/tf.math.add_154/Add", "op": "_FusedConv2D", "input": ["PartitionedCall/model_43/tf.math.multiply_476/Mul", "28738", "28748"], "device": "/device:CPU:0", "attr": {"epsilon": {"f": 0.0}, "strides": {"list": {"i": ["1", "1", "1", "1"]}}, "filter_format": {"s": "SFdJTw=="}, "TArgs": {"list": {"type": ["DT_FLOAT"]}}, "use_cudnn_on_gpu": {"b": true}, "data_format": {"s": "TkhXQw=="}, "fused_ops": {"list": {"s": ["Qmlhc0FkZA=="]}}, "padding": {"s": "U0FNRQ=="}, "T": {"type": "DT_FLOAT"}, "num_args": {"i": "1"}, "dilations": {"list": {"i": ["1", "1", "1", "1"]}}, "num_host_args": {"i": "0"}, "leakyrelu_alpha": {"f": 0.2}, "explicit_paddings": {"list": {}}}}, {"name": "PartitionedCall/model_43/tf.math.add_155/Add", "op": "_FusedConv2D", "input": ["PartitionedCall/model_43/tf.math.multiply_476/Mul", "28736", "28746"], "device": "/device:CPU:0", "attr": {"num_host_args": {"i": "0"}, "epsilon": {"f": 0.0}, "num_args": {"i": "1"}, "strides": {"list": {"i": ["1", "1", "1", "1"]}}, "use_cudnn_on_gpu": {"b": true}, "T": {"type": "DT_FLOAT"}, "dilations": {"list": {"i": ["1", "1", "1", "1"]}}, "fused_ops": {"list": {"s": ["Qmlhc0FkZA=="]}}, "explicit_paddings": {"list": {}}, "TArgs": {"list": {"type": ["DT_FLOAT"]}}, "leakyrelu_alpha": {"f": 0.2}, "data_format": {"s": "TkhXQw=="}, "padding": {"s": "U0FNRQ=="}, "filter_format": {"s": "SFdJTw=="}}}, {"name": "PartitionedCall/model_43/tf.math.sigmoid_111/Sigmoid", "op": "Sigmoid", "input": ["PartitionedCall/model_43/tf.math.add_154/Add"], "attr": {"T": {"type": "DT_FLOAT"}}}, {"name": "PartitionedCall/model_43/tf.math.sigmoid_112/Sigmoid", "op": "Sigmoid", "input": ["PartitionedCall/model_43/tf.math.add_155/Add"], "attr": {"T": {"type": "DT_FLOAT"}}}, {"name": "PartitionedCall/model_43/tf.math.multiply_480/Mul", "op": "Mul", "input": ["PartitionedCall/model_43/tf.math.add_154/Add", "PartitionedCall/model_43/tf.math.sigmoid_111/Sigmoid"], "attr": {"T": {"type": "DT_FLOAT"}}}, {"name": "PartitionedCall/model_43/tf.math.multiply_484/Mul", "op": "Mul", "input": ["PartitionedCall/model_43/tf.math.add_155/Add", "PartitionedCall/model_43/tf.math.sigmoid_112/Sigmoid"], "attr": {"T": {"type": "DT_FLOAT"}}}, {"name": "PartitionedCall/model_43/tf.math.add_156/Add", "op": "_FusedConv2D", "input": ["PartitionedCall/model_43/tf.math.multiply_480/Mul", "28762", "28772"], "device": "/device:CPU:0", "attr": {"data_format": {"s": "TkhXQw=="}, "strides": {"list": {"i": ["1", "1", "1", "1"]}}, "leakyrelu_alpha": {"f": 0.2}, "use_cudnn_on_gpu": {"b": true}, "T": {"type": "DT_FLOAT"}, "fused_ops": {"list": {"s": ["Qmlhc0FkZA=="]}}, "num_args": {"i": "1"}, "dilations": {"list": {"i": ["1", "1", "1", "1"]}}, "filter_format": {"s": "SFdJTw=="}, "epsilon": {"f": 0.0}, "padding": {"s": "U0FNRQ=="}, "explicit_paddings": {"list": {}}, "num_host_args": {"i": "0"}, "TArgs": {"list": {"type": ["DT_FLOAT"]}}}}, {"name": "PartitionedCall/model_43/tf.math.add_157/Add", "op": "_FusedConv2D", "input": ["PartitionedCall/model_43/tf.math.multiply_484/Mul", "28760", "28770"], "device": "/device:CPU:0", "attr": {"dilations": {"list": {"i": ["1", "1", "1", "1"]}}, "use_cudnn_on_gpu": {"b": true}, "T": {"type": "DT_FLOAT"}, "num_args": {"i": "1"}, "fused_ops": {"list": {"s": ["Qmlhc0FkZA=="]}}, "filter_format": {"s": "SFdJTw=="}, "TArgs": {"list": {"type": ["DT_FLOAT"]}}, "explicit_paddings": {"list": {}}, "leakyrelu_alpha": {"f": 0.2}, "data_format": {"s": "TkhXQw=="}, "padding": {"s": "U0FNRQ=="}, "epsilon": {"f": 0.0}, "num_host_args": {"i": "0"}, "strides": {"list": {"i": ["1", "1", "1", "1"]}}}}, {"name": "PartitionedCall/model_43/tf.math.sigmoid_113/Sigmoid", "op": "Sigmoid", "input": ["PartitionedCall/model_43/tf.math.add_156/Add"], "attr": {"T": {"type": "DT_FLOAT"}}}, {"name": "PartitionedCall/model_43/tf.math.sigmoid_114/Sigmoid", "op": "Sigmoid", "input": ["PartitionedCall/model_43/tf.math.add_157/Add"], "attr": {"T": {"type": "DT_FLOAT"}}}, {"name": "PartitionedCall/model_43/tf.math.multiply_488/Mul", "op": "Mul", "input": ["PartitionedCall/model_43/tf.math.add_156/Add", "PartitionedCall/model_43/tf.math.sigmoid_113/Sigmoid"], "attr": {"T": {"type": "DT_FLOAT"}}}, {"name": "PartitionedCall/model_43/tf.math.multiply_492/Mul", "op": "Mul", "input": ["PartitionedCall/model_43/tf.math.add_157/Add", "PartitionedCall/model_43/tf.math.sigmoid_114/Sigmoid"], "attr": {"T": {"type": "DT_FLOAT"}}}, {"name": "PartitionedCall/model_43/tf.math.add_158/Add", "op": "_FusedConv2D", "input": ["PartitionedCall/model_43/tf.math.multiply_488/Mul", "28782", "28792"], "device": "/device:CPU:0", "attr": {"num_host_args": {"i": "0"}, "padding": {"s": "U0FNRQ=="}, "filter_format": {"s": "SFdJTw=="}, "fused_ops": {"list": {"s": ["Qmlhc0FkZA=="]}}, "leakyrelu_alpha": {"f": 0.2}, "TArgs": {"list": {"type": ["DT_FLOAT"]}}, "num_args": {"i": "1"}, "use_cudnn_on_gpu": {"b": true}, "strides": {"list": {"i": ["1", "1", "1", "1"]}}, "T": {"type": "DT_FLOAT"}, "explicit_paddings": {"list": {}}, "dilations": {"list": {"i": ["1", "1", "1", "1"]}}, "epsilon": {"f": 0.0}, "data_format": {"s": "TkhXQw=="}}}, {"name": "PartitionedCall/model_43/tf.math.add_159/Add", "op": "_FusedConv2D", "input": ["PartitionedCall/model_43/tf.math.multiply_492/Mul", "28780", "28794"], "device": "/device:CPU:0", "attr": {"explicit_paddings": {"list": {}}, "epsilon": {"f": 0.0}, "num_host_args": {"i": "0"}, "T": {"type": "DT_FLOAT"}, "data_format": {"s": "TkhXQw=="}, "TArgs": {"list": {"type": ["DT_FLOAT"]}}, "num_args": {"i": "1"}, "strides": {"list": {"i": ["1", "1", "1", "1"]}}, "dilations": {"list": {"i": ["1", "1", "1", "1"]}}, "filter_format": {"s": "SFdJTw=="}, "leakyrelu_alpha": {"f": 0.2}, "fused_ops": {"list": {"s": ["Qmlhc0FkZA=="]}}, "use_cudnn_on_gpu": {"b": true}, "padding": {"s": "U0FNRQ=="}}}, {"name": "PartitionedCall/model_43/tf.concat_41/concat", "op": "ConcatV2", "input": ["PartitionedCall/model_43/tf.math.add_158/Add", "PartitionedCall/model_43/tf.math.add_159/Add", "PartitionedCall/model_43/tf.concat_41/concat/axis"], "attr": {"T": {"type": "DT_FLOAT"}, "N": {"i": "2"}, "Tidx": {"type": "DT_INT32"}}}, {"name": "PartitionedCall/model_43/tf.compat.v1.transpose_52/transpose", "op": "Transpose", "input": ["PartitionedCall/model_43/tf.concat_41/concat", "PartitionedCall/model_43/tf.compat.v1.transpose_52/transpose/perm"], "attr": {"T": {"type": "DT_FLOAT"}, "Tperm": {"type": "DT_INT32"}}}, {"name": "PartitionedCall/model_43/tf.reshape_23/Reshape", "op": "Reshape", "input": ["PartitionedCall/model_43/tf.compat.v1.transpose_52/transpose", "PartitionedCall/model_43/tf.reshape_23/Reshape/shape"], "attr": {"Tshape": {"type": "DT_INT32"}, "T": {"type": "DT_FLOAT"}}}, {"name": "PartitionedCall/model_43/tf.concat_42/concat", "op": "ConcatV2", "input": ["PartitionedCall/model_43/tf.reshape_17/Reshape", "PartitionedCall/model_43/tf.reshape_20/Reshape", "PartitionedCall/model_43/tf.reshape_23/Reshape", "PartitionedCall/model_43/tf.concat_42/concat/axis"], "attr": {"N": {"i": "3"}, "T": {"type": "DT_FLOAT"}, "Tidx": {"type": "DT_INT32"}}}, {"name": "PartitionedCall/model_43/tf.strided_slice_37/StridedSlice", "op": "StridedSlice", "input": ["PartitionedCall/model_43/tf.concat_42/concat", "28824", "28826", "PartitionedCall/model_43/tf.strided_slice_37/StridedSlice/strides"], "attr": {"T": {"type": "DT_FLOAT"}, "Index": {"type": "DT_INT64"}, "end_mask": {"i": "5"}, "begin_mask": {"i": "5"}, "ellipsis_mask": {"i": "0"}, "new_axis_mask": {"i": "0"}, "shrink_axis_mask": {"i": "0"}}}, {"name": "PartitionedCall/model_43/tf.strided_slice_36/StridedSlice", "op": "StridedSlice", "input": ["PartitionedCall/model_43/tf.concat_42/concat", "28804", "28806", "PartitionedCall/model_43/tf.strided_slice_36/StridedSlice/strides"], "attr": {"begin_mask": {"i": "7"}, "ellipsis_mask": {"i": "0"}, "new_axis_mask": {"i": "0"}, "shrink_axis_mask": {"i": "0"}, "T": {"type": "DT_FLOAT"}, "end_mask": {"i": "5"}, "Index": {"type": "DT_INT64"}}}, {"name": "PartitionedCall/model_43/tf.math.sigmoid_115/Sigmoid", "op": "Sigmoid", "input": ["PartitionedCall/model_43/tf.strided_slice_37/StridedSlice"], "attr": {"T": {"type": "DT_FLOAT"}}}, {"name": "PartitionedCall/model_43/tf.reshape_26/Reshape", "op": "Reshape", "input": ["PartitionedCall/model_43/tf.strided_slice_36/StridedSlice", "PartitionedCall/model_43/tf.reshape_26/Reshape/shape"], "attr": {"Tshape": {"type": "DT_INT32"}, "T": {"type": "DT_FLOAT"}}}, {"name": "PartitionedCall/model_43/tf.compat.v1.transpose_59/transpose", "op": "Transpose", "input": ["PartitionedCall/model_43/tf.reshape_26/Reshape", "PartitionedCall/model_43/tf.compat.v1.transpose_59/transpose/perm"], "attr": {"Tperm": {"type": "DT_INT32"}, "T": {"type": "DT_FLOAT"}}}, {"name": "PartitionedCall/model_43/tf.compat.v1.transpose_60/transpose", "op": "Transpose", "input": ["PartitionedCall/model_43/tf.compat.v1.transpose_59/transpose", "PartitionedCall/model_43/tf.compat.v1.transpose_60/transpose/perm"], "attr": {"T": {"type": "DT_FLOAT"}, "Tperm": {"type": "DT_INT32"}}}, {"name": "PartitionedCall/model_43/tf.nn.softmax_1//model.22/dfl/Softmax", "op": "Softmax", "input": ["PartitionedCall/model_43/tf.compat.v1.transpose_60/transpose"], "attr": {"T": {"type": "DT_FLOAT"}}}, {"name": "PartitionedCall/model_43/tf.nn.convolution_135/convolution", "op": "Conv2D", "input": ["PartitionedCall/model_43/tf.nn.softmax_1//model.22/dfl/Softmax", "28808"], "device": "/device:CPU:0", "attr": {"explicit_paddings": {"list": {}}, "padding": {"s": "U0FNRQ=="}, "data_format": {"s": "TkhXQw=="}, "dilations": {"list": {"i": ["1", "1", "1", "1"]}}, "strides": {"list": {"i": ["1", "1", "1", "1"]}}, "use_cudnn_on_gpu": {"b": true}, "T": {"type": "DT_FLOAT"}}}, {"name": "PartitionedCall/model_43/tf.compat.v1.transpose_65/transpose", "op": "Transpose", "input": ["PartitionedCall/model_43/tf.nn.convolution_135/convolution", "PartitionedCall/model_43/tf.compat.v1.transpose_65/transpose/perm"], "attr": {"T": {"type": "DT_FLOAT"}, "Tperm": {"type": "DT_INT32"}}}, {"name": "PartitionedCall/model_43/tf.reshape_29/Reshape", "op": "Reshape", "input": ["PartitionedCall/model_43/tf.compat.v1.transpose_65/transpose", "PartitionedCall/model_43/tf.reshape_29/Reshape/shape"], "attr": {"T": {"type": "DT_FLOAT"}, "Tshape": {"type": "DT_INT32"}}}, {"name": "PartitionedCall/model_43/tf.strided_slice_39/StridedSlice", "op": "StridedSlice", "input": ["PartitionedCall/model_43/tf.reshape_29/Reshape", "28810", "28812", "PartitionedCall/model_43/tf.strided_slice_39/ones_like"], "attr": {"new_axis_mask": {"i": "0"}, "begin_mask": {"i": "5"}, "shrink_axis_mask": {"i": "0"}, "Index": {"type": "DT_INT64"}, "end_mask": {"i": "5"}, "ellipsis_mask": {"i": "0"}, "T": {"type": "DT_FLOAT"}}}, {"name": "PartitionedCall/model_43/tf.strided_slice_38/StridedSlice", "op": "StridedSlice", "input": ["PartitionedCall/model_43/tf.reshape_29/Reshape", "28814", "28816", "PartitionedCall/model_43/tf.strided_slice_38/ones_like"], "attr": {"ellipsis_mask": {"i": "0"}, "shrink_axis_mask": {"i": "0"}, "Index": {"type": "DT_INT64"}, "new_axis_mask": {"i": "0"}, "T": {"type": "DT_FLOAT"}, "end_mask": {"i": "5"}, "begin_mask": {"i": "7"}}}, {"name": "PartitionedCall/model_43/tf.math.add_160/Add", "op": "AddV2", "input": ["28818", "PartitionedCall/model_43/tf.strided_slice_39/StridedSlice"], "attr": {"T": {"type": "DT_FLOAT"}}}, {"name": "PartitionedCall/model_43/tf.math.subtract_2/Sub", "op": "Sub", "input": ["28820", "PartitionedCall/model_43/tf.strided_slice_38/StridedSlice"], "attr": {"T": {"type": "DT_FLOAT"}}}, {"name": "PartitionedCall/model_43/tf.math.add_161/Add", "op": "AddV2", "input": ["PartitionedCall/model_43/tf.math.subtract_2/Sub", "PartitionedCall/model_43/tf.math.add_160/Add"], "attr": {"T": {"type": "DT_FLOAT"}}}, {"name": "PartitionedCall/model_43/tf.math.subtract_3/Sub", "op": "Sub", "input": ["PartitionedCall/model_43/tf.math.add_160/Add", "PartitionedCall/model_43/tf.math.subtract_2/Sub"], "attr": {"T": {"type": "DT_FLOAT"}}}, {"name": "PartitionedCall/model_43/tf.math.divide_1/truediv", "op": "Mul", "input": ["PartitionedCall/model_43/tf.math.add_161/Add", "ConstantFolding/PartitionedCall/model_43/tf.math.divide_1/truediv_recip"], "attr": {"T": {"type": "DT_FLOAT"}}}, {"name": "PartitionedCall/model_43/tf.concat_46/concat", "op": "ConcatV2", "input": ["PartitionedCall/model_43/tf.math.divide_1/truediv", "PartitionedCall/model_43/tf.math.subtract_3/Sub", "PartitionedCall/model_43/tf.concat_46/concat/axis"], "attr": {"Tidx": {"type": "DT_INT32"}, "N": {"i": "2"}, "T": {"type": "DT_FLOAT"}}}, {"name": "PartitionedCall/model_43/tf.math.multiply_505/Mul", "op": "Mul", "input": ["PartitionedCall/model_43/tf.concat_46/concat", "PartitionedCall/model_43/tf.math.multiply_505/Mul/y"], "attr": {"T": {"type": "DT_FLOAT"}}}, {"name": "PartitionedCall/model_43/output0/concat", "op": "ConcatV2", "input": ["PartitionedCall/model_43/tf.math.multiply_505/Mul", "PartitionedCall/model_43/tf.math.sigmoid_115/Sigmoid", "PartitionedCall/model_43/output0/concat/axis"], "attr": {"N": {"i": "2"}, "Tidx": {"type": "DT_INT32"}, "T": {"type": "DT_FLOAT"}}}, {"name": "Identity", "op": "Identity", "input": ["PartitionedCall/model_43/output0/concat"], "attr": {"T": {"type": "DT_FLOAT"}}}], "library": {}, "versions": {"producer": 1766}}, "weightsManifest": [{"paths": ["group1-shard1of4.bin", "group1-shard2of4.bin", "group1-shard3of4.bin", "group1-shard4of4.bin"], "weights": [{"name": "ConstantFolding/PartitionedCall/model_43/tf.math.divide_1/truediv_recip", "shape": [1, 1, 1], "dtype": "float32"}, {"name": "28818", "shape": [1, 2, 8400], "dtype": "float32"}, {"name": "28810", "shape": [3], "dtype": "int32"}, {"name": "28812", "shape": [3], "dtype": "int32"}, {"name": "PartitionedCall/model_43/tf.strided_slice_39/ones_like", "shape": [3], "dtype": "int32"}, {"name": "28820", "shape": [1, 2, 8400], "dtype": "float32"}, {"name": "28804", "shape": [3], "dtype": "int32"}, {"name": "28806", "shape": [3], "dtype": "int32"}, {"name": "PartitionedCall/model_43/tf.strided_slice_36/StridedSlice/strides", "shape": [3], "dtype": "int32"}, {"name": "PartitionedCall/model_43/tf.reshape_26/Reshape/shape", "shape": [4], "dtype": "int32"}, {"name": "PartitionedCall/model_43/tf.compat.v1.transpose_59/transpose/perm", "shape": [4], "dtype": "int32"}, {"name": "PartitionedCall/model_43/tf.compat.v1.transpose_60/transpose/perm", "shape": [4], "dtype": "int32"}, {"name": "28808", "shape": [1, 1, 16, 1], "dtype": "float32"}, {"name": "PartitionedCall/model_43/tf.compat.v1.transpose_65/transpose/perm", "shape": [4], "dtype": "int32"}, {"name": "PartitionedCall/model_43/tf.reshape_29/Reshape/shape", "shape": [3], "dtype": "int32"}, {"name": "28814", "shape": [3], "dtype": "int32"}, {"name": "28816", "shape": [3], "dtype": "int32"}, {"name": "PartitionedCall/model_43/tf.strided_slice_38/ones_like", "shape": [3], "dtype": "int32"}, {"name": "PartitionedCall/model_43/tf.concat_46/concat/axis", "shape": [], "dtype": "int32"}, {"name": "PartitionedCall/model_43/tf.math.multiply_505/Mul/y", "shape": [1, 1, 8400], "dtype": "float32"}, {"name": "28744", "shape": [3, 3, 64, 64], "dtype": "float32"}, {"name": "28754", "shape": [64], "dtype": "float32"}, {"name": "28768", "shape": [3, 3, 64, 64], "dtype": "float32"}, {"name": "28778", "shape": [64], "dtype": "float32"}, {"name": "28790", "shape": [1, 1, 64, 64], "dtype": "float32"}, {"name": "28800", "shape": [64], "dtype": "float32"}, {"name": "28730", "shape": [3, 3, 64, 80], "dtype": "float32"}, {"name": "28734", "shape": [80], "dtype": "float32"}, {"name": "28756", "shape": [3, 3, 80, 80], "dtype": "float32"}, {"name": "28758", "shape": [80], "dtype": "float32"}, {"name": "28788", "shape": [1, 1, 80, 80], "dtype": "float32"}, {"name": "28802", "shape": [80], "dtype": "float32"}, {"name": "PartitionedCall/model_43/tf.concat_36/concat/axis", "shape": [], "dtype": "int32"}, {"name": "PartitionedCall/model_43/tf.compat.v1.transpose_42/transpose/perm", "shape": [4], "dtype": "int32"}, {"name": "PartitionedCall/model_43/tf.reshape_17/Reshape/shape", "shape": [3], "dtype": "int32"}, {"name": "28742", "shape": [3, 3, 128, 64], "dtype": "float32"}, {"name": "28752", "shape": [64], "dtype": "float32"}, {"name": "28766", "shape": [3, 3, 64, 64], "dtype": "float32"}, {"name": "28776", "shape": [64], "dtype": "float32"}, {"name": "28786", "shape": [1, 1, 64, 64], "dtype": "float32"}, {"name": "28796", "shape": [64], "dtype": "float32"}, {"name": "28740", "shape": [3, 3, 128, 80], "dtype": "float32"}, {"name": "28750", "shape": [80], "dtype": "float32"}, {"name": "28764", "shape": [3, 3, 80, 80], "dtype": "float32"}, {"name": "28774", "shape": [80], "dtype": "float32"}, {"name": "28784", "shape": [1, 1, 80, 80], "dtype": "float32"}, {"name": "28798", "shape": [80], "dtype": "float32"}, {"name": "PartitionedCall/model_43/tf.concat_39/concat/axis", "shape": [], "dtype": "int32"}, {"name": "PartitionedCall/model_43/tf.compat.v1.transpose_47/transpose/perm", "shape": [4], "dtype": "int32"}, {"name": "PartitionedCall/model_43/tf.reshape_20/Reshape/shape", "shape": [3], "dtype": "int32"}, {"name": "28738", "shape": [3, 3, 256, 64], "dtype": "float32"}, {"name": "28748", "shape": [64], "dtype": "float32"}, {"name": "28762", "shape": [3, 3, 64, 64], "dtype": "float32"}, {"name": "28772", "shape": [64], "dtype": "float32"}, {"name": "28782", "shape": [1, 1, 64, 64], "dtype": "float32"}, {"name": "28792", "shape": [64], "dtype": "float32"}, {"name": "28724", "shape": [4], "dtype": "int32"}, {"name": "28726", "shape": [4], "dtype": "int32"}, {"name": "PartitionedCall/model_43/tf.strided_slice_34/ones_like", "shape": [4], "dtype": "int32"}, {"name": "28694", "shape": [4], "dtype": "int32"}, {"name": "28696", "shape": [4], "dtype": "int32"}, {"name": "PartitionedCall/model_43/tf.strided_slice_32/ones_like", "shape": [4], "dtype": "int32"}, {"name": "28664", "shape": [4], "dtype": "int32"}, {"name": "28666", "shape": [4], "dtype": "int32"}, {"name": "PartitionedCall/model_43/tf.strided_slice_30/ones_like", "shape": [4], "dtype": "int32"}, {"name": "PartitionedCall/model_43/tf.compat.v1.image.resize_nearest_neighbor_3/ResizeNearestNeighbor/size", "shape": [2], "dtype": "int32"}, {"name": "PartitionedCall/model_43/tf.concat_31/concat/axis", "shape": [], "dtype": "int32"}, {"name": "28648", "shape": [1, 1, 192, 64], "dtype": "float32"}, {"name": "28650", "shape": [64], "dtype": "float32"}, {"name": "28652", "shape": [4], "dtype": "int32"}, {"name": "28654", "shape": [4], "dtype": "int32"}, {"name": "PartitionedCall/model_43/tf.strided_slice_31/ones_like", "shape": [4], "dtype": "int32"}, {"name": "28656", "shape": [3, 3, 32, 32], "dtype": "float32"}, {"name": "28658", "shape": [32], "dtype": "float32"}, {"name": "28660", "shape": [3, 3, 32, 32], "dtype": "float32"}, {"name": "28662", "shape": [32], "dtype": "float32"}, {"name": "PartitionedCall/model_43/tf.concat_32/concat/axis", "shape": [], "dtype": "int32"}, {"name": "28668", "shape": [1, 1, 96, 64], "dtype": "float32"}, {"name": "28670", "shape": [64], "dtype": "float32"}, {"name": "28672", "shape": [4, 2], "dtype": "int32"}, {"name": "28674", "shape": [3, 3, 64, 64], "dtype": "float32"}, {"name": "28676", "shape": [64], "dtype": "float32"}, {"name": "28640", "shape": [4], "dtype": "int32"}, {"name": "28642", "shape": [4], "dtype": "int32"}, {"name": "PartitionedCall/model_43/tf.strided_slice_28/ones_like", "shape": [4], "dtype": "int32"}, {"name": "PartitionedCall/model_43/tf.compat.v1.image.resize_nearest_neighbor_2/ResizeNearestNeighbor/size", "shape": [2], "dtype": "int32"}, {"name": "PartitionedCall/model_43/tf.concat_29/concat/axis", "shape": [], "dtype": "int32"}, {"name": "28624", "shape": [1, 1, 384, 128], "dtype": "float32"}, {"name": "28626", "shape": [128], "dtype": "float32"}, {"name": "28628", "shape": [4], "dtype": "int32"}, {"name": "28630", "shape": [4], "dtype": "int32"}, {"name": "PartitionedCall/model_43/tf.strided_slice_29/ones_like", "shape": [4], "dtype": "int32"}, {"name": "28632", "shape": [3, 3, 64, 64], "dtype": "float32"}, {"name": "28634", "shape": [64], "dtype": "float32"}, {"name": "28636", "shape": [3, 3, 64, 64], "dtype": "float32"}, {"name": "28638", "shape": [64], "dtype": "float32"}, {"name": "PartitionedCall/model_43/tf.concat_30/concat/axis", "shape": [], "dtype": "int32"}, {"name": "28644", "shape": [1, 1, 192, 128], "dtype": "float32"}, {"name": "28646", "shape": [128], "dtype": "float32"}, {"name": "PartitionedCall/model_43/tf.concat_33/concat/axis", "shape": [], "dtype": "int32"}, {"name": "28678", "shape": [1, 1, 192, 128], "dtype": "float32"}, {"name": "28680", "shape": [128], "dtype": "float32"}, {"name": "28682", "shape": [4], "dtype": "int32"}, {"name": "28684", "shape": [4], "dtype": "int32"}, {"name": "PartitionedCall/model_43/tf.strided_slice_33/ones_like", "shape": [4], "dtype": "int32"}, {"name": "28686", "shape": [3, 3, 64, 64], "dtype": "float32"}, {"name": "28688", "shape": [64], "dtype": "float32"}, {"name": "28690", "shape": [3, 3, 64, 64], "dtype": "float32"}, {"name": "28692", "shape": [64], "dtype": "float32"}, {"name": "PartitionedCall/model_43/tf.concat_37/concat/axis", "shape": [], "dtype": "int32"}, {"name": "28698", "shape": [1, 1, 192, 128], "dtype": "float32"}, {"name": "28700", "shape": [128], "dtype": "float32"}, {"name": "28702", "shape": [4, 2], "dtype": "int32"}, {"name": "28704", "shape": [3, 3, 128, 128], "dtype": "float32"}, {"name": "28706", "shape": [128], "dtype": "float32"}, {"name": "28608", "shape": [4], "dtype": "int32"}, {"name": "28610", "shape": [4], "dtype": "int32"}, {"name": "PartitionedCall/model_43/tf.strided_slice_26/ones_like", "shape": [4], "dtype": "int32"}, {"name": "28578", "shape": [4], "dtype": "int32"}, {"name": "28580", "shape": [4], "dtype": "int32"}, {"name": "PartitionedCall/model_43/tf.strided_slice_24/ones_like", "shape": [4], "dtype": "int32"}, {"name": "28540", "shape": [4], "dtype": "int32"}, {"name": "28542", "shape": [4], "dtype": "int32"}, {"name": "PartitionedCall/model_43/tf.strided_slice_22/ones_like", "shape": [4], "dtype": "int32"}, {"name": "28502", "shape": [4], "dtype": "int32"}, {"name": "28504", "shape": [4], "dtype": "int32"}, {"name": "PartitionedCall/model_43/tf.strided_slice_20/ones_like", "shape": [4], "dtype": "int32"}, {"name": "28474", "shape": [4, 2], "dtype": "int32"}, {"name": "28476", "shape": [3, 3, 3, 16], "dtype": "float32"}, {"name": "28478", "shape": [16], "dtype": "float32"}, {"name": "28480", "shape": [4, 2], "dtype": "int32"}, {"name": "28482", "shape": [3, 3, 16, 32], "dtype": "float32"}, {"name": "28484", "shape": [32], "dtype": "float32"}, {"name": "28486", "shape": [1, 1, 32, 32], "dtype": "float32"}, {"name": "28488", "shape": [32], "dtype": "float32"}, {"name": "28490", "shape": [4], "dtype": "int32"}, {"name": "28492", "shape": [4], "dtype": "int32"}, {"name": "PartitionedCall/model_43/tf.strided_slice_21/ones_like", "shape": [4], "dtype": "int32"}, {"name": "28494", "shape": [3, 3, 16, 16], "dtype": "float32"}, {"name": "28496", "shape": [16], "dtype": "float32"}, {"name": "28498", "shape": [3, 3, 16, 16], "dtype": "float32"}, {"name": "28500", "shape": [16], "dtype": "float32"}, {"name": "PartitionedCall/model_43/tf.concat_24/concat/axis", "shape": [], "dtype": "int32"}, {"name": "28506", "shape": [1, 1, 48, 32], "dtype": "float32"}, {"name": "28508", "shape": [32], "dtype": "float32"}, {"name": "28510", "shape": [4, 2], "dtype": "int32"}, {"name": "28512", "shape": [3, 3, 32, 64], "dtype": "float32"}, {"name": "28514", "shape": [64], "dtype": "float32"}, {"name": "28516", "shape": [1, 1, 64, 64], "dtype": "float32"}, {"name": "28518", "shape": [64], "dtype": "float32"}, {"name": "28520", "shape": [4], "dtype": "int32"}, {"name": "28522", "shape": [4], "dtype": "int32"}, {"name": "PartitionedCall/model_43/tf.strided_slice_23/ones_like", "shape": [4], "dtype": "int32"}, {"name": "28524", "shape": [3, 3, 32, 32], "dtype": "float32"}, {"name": "28526", "shape": [32], "dtype": "float32"}, {"name": "28528", "shape": [3, 3, 32, 32], "dtype": "float32"}, {"name": "28530", "shape": [32], "dtype": "float32"}, {"name": "28532", "shape": [3, 3, 32, 32], "dtype": "float32"}, {"name": "28534", "shape": [32], "dtype": "float32"}, {"name": "28536", "shape": [3, 3, 32, 32], "dtype": "float32"}, {"name": "28538", "shape": [32], "dtype": "float32"}, {"name": "PartitionedCall/model_43/tf.concat_25/concat/axis", "shape": [], "dtype": "int32"}, {"name": "28544", "shape": [1, 1, 128, 64], "dtype": "float32"}, {"name": "28546", "shape": [64], "dtype": "float32"}, {"name": "28548", "shape": [4, 2], "dtype": "int32"}, {"name": "28550", "shape": [3, 3, 64, 128], "dtype": "float32"}, {"name": "28552", "shape": [128], "dtype": "float32"}, {"name": "28554", "shape": [1, 1, 128, 128], "dtype": "float32"}, {"name": "28556", "shape": [128], "dtype": "float32"}, {"name": "28558", "shape": [4], "dtype": "int32"}, {"name": "28560", "shape": [4], "dtype": "int32"}, {"name": "PartitionedCall/model_43/tf.strided_slice_25/ones_like", "shape": [4], "dtype": "int32"}, {"name": "28562", "shape": [3, 3, 64, 64], "dtype": "float32"}, {"name": "28564", "shape": [64], "dtype": "float32"}, {"name": "28566", "shape": [3, 3, 64, 64], "dtype": "float32"}, {"name": "28568", "shape": [64], "dtype": "float32"}, {"name": "28570", "shape": [3, 3, 64, 64], "dtype": "float32"}, {"name": "28572", "shape": [64], "dtype": "float32"}, {"name": "28574", "shape": [3, 3, 64, 64], "dtype": "float32"}, {"name": "28576", "shape": [64], "dtype": "float32"}, {"name": "PartitionedCall/model_43/tf.concat_26/concat/axis", "shape": [], "dtype": "int32"}, {"name": "28582", "shape": [1, 1, 256, 128], "dtype": "float32"}, {"name": "28584", "shape": [128], "dtype": "float32"}, {"name": "28586", "shape": [4, 2], "dtype": "int32"}, {"name": "28588", "shape": [3, 3, 128, 256], "dtype": "float32"}, {"name": "28590", "shape": [256], "dtype": "float32"}, {"name": "28592", "shape": [1, 1, 256, 256], "dtype": "float32"}, {"name": "28594", "shape": [256], "dtype": "float32"}, {"name": "28596", "shape": [4], "dtype": "int32"}, {"name": "28598", "shape": [4], "dtype": "int32"}, {"name": "PartitionedCall/model_43/tf.strided_slice_27/ones_like", "shape": [4], "dtype": "int32"}, {"name": "28600", "shape": [3, 3, 128, 128], "dtype": "float32"}, {"name": "28602", "shape": [128], "dtype": "float32"}, {"name": "28604", "shape": [3, 3, 128, 128], "dtype": "float32"}, {"name": "28606", "shape": [128], "dtype": "float32"}, {"name": "PartitionedCall/model_43/tf.concat_27/concat/axis", "shape": [], "dtype": "int32"}, {"name": "28612", "shape": [1, 1, 384, 256], "dtype": "float32"}, {"name": "28614", "shape": [256], "dtype": "float32"}, {"name": "28616", "shape": [1, 1, 256, 128], "dtype": "float32"}, {"name": "28618", "shape": [128], "dtype": "float32"}, {"name": "PartitionedCall/model_43/tf.concat_28/concat/axis", "shape": [], "dtype": "int32"}, {"name": "28620", "shape": [1, 1, 512, 256], "dtype": "float32"}, {"name": "28622", "shape": [256], "dtype": "float32"}, {"name": "PartitionedCall/model_43/tf.concat_38/concat/axis", "shape": [], "dtype": "int32"}, {"name": "28708", "shape": [1, 1, 384, 256], "dtype": "float32"}, {"name": "28710", "shape": [256], "dtype": "float32"}, {"name": "28712", "shape": [4], "dtype": "int32"}, {"name": "28714", "shape": [4], "dtype": "int32"}, {"name": "PartitionedCall/model_43/tf.strided_slice_35/ones_like", "shape": [4], "dtype": "int32"}, {"name": "28716", "shape": [3, 3, 128, 128], "dtype": "float32"}, {"name": "28718", "shape": [128], "dtype": "float32"}, {"name": "28720", "shape": [3, 3, 128, 128], "dtype": "float32"}, {"name": "28722", "shape": [128], "dtype": "float32"}, {"name": "PartitionedCall/model_43/tf.concat_40/concat/axis", "shape": [], "dtype": "int32"}, {"name": "28728", "shape": [1, 1, 384, 256], "dtype": "float32"}, {"name": "28732", "shape": [256], "dtype": "float32"}, {"name": "28736", "shape": [3, 3, 256, 80], "dtype": "float32"}, {"name": "28746", "shape": [80], "dtype": "float32"}, {"name": "28760", "shape": [3, 3, 80, 80], "dtype": "float32"}, {"name": "28770", "shape": [80], "dtype": "float32"}, {"name": "28780", "shape": [1, 1, 80, 80], "dtype": "float32"}, {"name": "28794", "shape": [80], "dtype": "float32"}, {"name": "PartitionedCall/model_43/tf.concat_41/concat/axis", "shape": [], "dtype": "int32"}, {"name": "PartitionedCall/model_43/tf.compat.v1.transpose_52/transpose/perm", "shape": [4], "dtype": "int32"}, {"name": "PartitionedCall/model_43/tf.reshape_23/Reshape/shape", "shape": [3], "dtype": "int32"}, {"name": "PartitionedCall/model_43/tf.concat_42/concat/axis", "shape": [], "dtype": "int32"}, {"name": "28824", "shape": [3], "dtype": "int32"}, {"name": "28826", "shape": [3], "dtype": "int32"}, {"name": "PartitionedCall/model_43/tf.strided_slice_37/StridedSlice/strides", "shape": [3], "dtype": "int32"}, {"name": "PartitionedCall/model_43/output0/concat/axis", "shape": [], "dtype": "int32"}]}]}